Classics/dqn_model.pth (torch, 6236 bytes, 6 tensors)

fc1.weight f4 [24, 8]
00000000: 8610 42be 65dc 91c0 e719 32c0 509f 933f
00000010: efde d1be 4d69 73c0 3cfd 49bf ae90 59c0
00000020: 099f 8c40 3787 33c1 3033 b940 5417 d740
00000030: 4295 a4c0 ffcd f540 694b f5bf c2e3 80be
00000040: 6b4d 1a3f 449e 27c0 e54b 74bf 2c88 253f
00000050: 6f53 1d3f d082 1ec0 288f 073f fc99 2fc0
00000060: 0180 79c0 9d4b f0bf b785 393f 4969 c63d
00000070: 34f3 1b3f fb6c 0cc0 85ce 92c0 5ee6 60c0
00000080: 1380 993c 8bad 173d 8216 f7bc 743b 90be
00000090: c07e bdbd 6054 8abc 4ad1 95bb 79ca 40be
000000a0: 73fa 5cc0 a742 14c1 d2b6 29c0 aafb eb3f
000000b0: d37b a9c0 3b1e efbf 4529 8240 40bf cfc0
000000c0: 3ad1 07c1 783e e740 b3ee d43f 4534 6dc0
000000d0: 1b19 51c0 1e53 8740 44b8 333f 3f6a 78c0
000000e0: fb4b d53f af12 0340 8716 ed3f b54e 00c0
000000f0: a92b 29c0 07ce cdbf 6ca7 68c0 20d7 ecbf
00000100: 0f10 063f 008c a0c0 de57 9e3e a1d4 473f
00000110: 66c3 fc3d f1d4 8ac0 e4ea 86c0 c4b0 d0bf
00000120: 96b8 843d 382e d4bd 121b 8c3d 2ce2 66be
00000130: c812 b4be 5108 10be 5b6f adbe d3c8 ff3d
00000140: 5ede 7440 e9a8 0741 0c58 7640 d884 5d40
00000150: b231 37c1 9185 8740 58e3 283f 83a0 d9be
00000160: 48a1 013d ddb9 0f3d 2cc6 8f3b d230 85be
00000170: 5dee 263e 129b d8bd 084a 88be 3494 b3bd
00000180: a963 a6bf 3de6 e9bf b21c 663f ea5d 6b3e
00000190: 3d02 f6bf 9602 70be c7c5 59be b754 18c0
000001a0: 3416 acbf 1f6b b13e 2be3 393f 4a9c b13f
000001b0: 24d8 39c0 9e9b 40be ddc0 33bf 5232 fbbc
000001c0: 9b8e 49be 1bdd 8cbf f473 80bf 4717 953f
000001d0: bcc6 0ebf c246 50c0 2951 1cc0 0386 31be
000001e0: 15de ce3e d95e 13c0 2620 2cbe 4234 d4bd
000001f0: 6030 e8bf b058 52be d8e9 033f 901a 92bf
00000200: 29e1 67be 3cf8 77be ce24 803d ad86 8fbe
00000210: 6f4a a8be 6f81 463e 4a18 23be 87ee 1e3d
00000220: 9545 a4c0 9bc2 c2c0 0b34 96c0 e3c8 0bc0
00000230: 8d24 5541 9bfa 0c41 6c35 143f 5edc cd3e
00000240: 2a40 94c0 33b5 03be 686c 3b41 8f0f 7740
00000250: 5088 62bf 22d5 773f 61a5 eabe 2a89 8bc0
00000260: 1cc4 e140 b8ea f840 ea89 9bc0 090f 5bc0
00000270: 65a5 6f3e 420d b23f d763 743f ff62 923e
00000280: 8daa 27c1 12c2 23c0 271f e63e e97c 0a40
00000290: 1d8b d840 b20d 0a41 bc17 02c1 4ffa af40
000002a0: 73e6 e7bf 1184 493f 325e a240 f95c e9c0
000002b0: 9ef3 2240 5397 97c0 5111 45c0 45f1 55c0
000002c0: ad6c ccbf 2fb3 943e 30d3 87c0 b8b2 eb3f
000002d0: dddb 8ebf 91ae e7be 10f0 90be 3889 88c0
000002e0: 7baf d6be 54d5 4e3f 5b30 cb3f ed7b c1c0
000002f0: 1422 1ec1 4344 3d40 d078 f1bf efaa 7440
-0.18951616 -4.5581536 -2.782831 1.1532993 -0.40990397 -3.803302 -0.7890203 -3.3994555
4.3944135 -11.220511 5.7874985 6.7215977 -5.14322 7.681396 -1.9163638 -0.25173765
0.6027438 -2.6190348 -0.95428306 0.64660907 0.61455435 -2.4767342 0.52952814 -2.7437735
-3.8984377 -1.8773075 0.7246966 0.0968805 0.60917974 -2.1941516 -4.58771 -3.5140605
0.018737828 0.037030738 -0.0301621 -0.2817036 -0.09252691 -0.016885936 -0.0045720683 -0.18827237
-3.4527862 -9.266273 -2.6517835 1.8436177 -5.2963653 -1.8681101 4.067538 -6.492096
-8.488581 7.2263756 1.6635345 -3.7063153 -3.2671573 4.228896 0.7020304 -3.8814847
1.6663812 2.0480154 1.85225 -2.004804 -2.6432898 -1.60785 -3.6352186 -1.8503151
0.52368253 -5.01709 0.30926412 0.7805882 0.12341957 -4.338494 -4.216173 -1.6303945
0.064805195 -0.10360378 0.06841101 -0.22547215 -0.3517058 -0.14065672 -0.3387402 0.12489476
3.8260722 8.478738 3.849124 3.4612331 -11.449633 4.2350545 0.659719 -0.42505273
0.03164795 0.035089362 0.0043876376 -0.2601381 0.16301866 -0.10576452 -0.2661898 -0.08768502
-1.2999164 -1.8273388 0.89887536 0.22985044 -1.9219433 -0.23438486 -0.21266852 -2.3801706
-1.3444276 0.3465204 0.72612256 1.3875821 -2.9038172 -0.18809363 -0.7021616 -0.030663643
-0.19683306 -1.1004976 -1.0035386 1.1647729 -0.55771995 -3.2543187 -2.4424536 -0.17336278
0.4040381 -2.302664 -0.16809139 -0.1036153 -1.8139763 -0.20541644 0.5152869 -1.1414356
-0.22644486 -0.24215788 0.0625702 -0.28032437 -0.32869288 0.19385312 -0.15927234 0.038801696
-5.133494 -6.0862556 -4.693853 -2.1841362 13.321424 8.811183 0.57894015 0.4020719
-4.6328325 -0.12862091 11.713966 3.8603246 -0.88489246 0.9680959 -0.458293 -4.3604937
7.055189 7.778652 -4.860585 -3.4227927 0.23402937 1.3910296 0.95464844 0.28591153
-10.479138 -2.55872 0.44945642 2.163874 6.7669816 8.628344 -8.130795 5.4993052
-1.8117203 0.7871714 5.0739985 -7.292599 2.5461192 -4.737222 -3.079182 -3.342851
-1.5970665 0.29042956 -4.2445297 1.8413916 -1.1160847 -0.4525037 -0.28308153 -4.2667503
-0.41930756 0.8079426 1.5874132 -6.0463777 -9.88332 2.9572914 -1.8864994 3.822933

fc1.bias f4 [24]
00000000: 98ad b3bf 74dd bfc0 5663 1cc0 9ab8 12c0
00000010: 06a5 89be 84c2 1a40 64e4 5a40 ea15 81c0
00000020: f85b 1ac0 6efa a9be ebbd 20c0 c6fa c7be
00000030: f546 c1bf dc95 1fc0 6b5d fabf 84b1 06c0
00000040: d2a0 a8be 0dce 6440 ad39 23c1 092b aac0
00000050: f8a6 dcc0 fd8d f4c0 f35a 0ec0 6772 3140
-1.4037352 -5.995783 -2.443563 -2.2925172 -0.26883715 2.4181223 3.4201899 -4.033925
-2.4118633 -0.33198875 -2.5115917 -0.39058512 -1.5099779 -2.4935217 -1.9559759 -2.1045847
-0.32935196 3.5750763 -10.201581 -5.3177533 -6.895382 -7.6423326 -2.224301 2.7726076

fc2.weight f4 [24, 24]
00000000: c536 d3be e1f9 8cbf 7118 6abd 70e6 0cbf
00000010: f60c a3bc feba 8ebf b757 ffbe 36ff 39c0
00000020: 9d10 dcbd 6354 63be 09d9 63bd 6bd1 753e
00000030: ebb1 8bbd 89a8 ed3e bf93 453e 2030 cd3f
00000040: df3c de3b 3ceb 61c0 0338 9b3e bf19 dcbf
00000050: 0a3b dabe a9f0 73bd 0790 30c0 c06a 8ebf
00000060: e53f 763f 04aa 2dc1 03ab bebf 6997 3c40
00000070: c173 b53d 1e61 18c1 0844 29c1 d605 53c0
00000080: 7f5b 60c0 55f9 a0be fd57 0d41 4c51 0d3e
00000090: fe89 fbbd 17e2 b23f 7a7c cdbc 7fd2 933f
000000a0: 6221 08be cab2 62c0 4f0d 7c40 a2c5 dbbf
000000b0: 5d4c 3ac1 9740 c43f 7eb1 b1bf 3df1 a13d
000000c0: b232 4fbd b465 05c1 8dea bf3d fb4a 1440
000000d0: ad86 983e 4167 73c0 07f8 a9c1 ac38 9140
000000e0: 66c3 36c0 644c 8d3d df68 75c0 be1f 2a3d
000000f0: 9be6 debf d362 ee3e 2f9f 9b3e 1560 0240
00000100: ed40 2fbe d29d 31c1 9623 6a40 74ca 2f40
00000110: ee78 88c0 e785 b8c0 f6c5 0ec0 566a 80c1
00000120: e4f3 c43b a164 c8be e33f 8a3d 25f9 0abe
00000130: 0c95 403e 59df 83be 0497 4cbe 3e85 adbe
00000140: fe88 e8be 35a7 27be e8e6 95be cbc3 a53d
00000150: 6f10 a83d 225e f93d 435f 0ebd 6936 e03d
00000160: b762 12be 236a 1ebe 6387 85bd 28c3 0dbe
00000170: 860f 21be 61d1 7ebe 0d76 c0bd f7bd 51be
00000180: bfa0 453f a865 fbc0 a78f 563f c293 afbf
00000190: 4766 6dbd 3e58 75c0 8b8d a2c0 5049 2bc0
000001a0: 7a87 5f3e bc94 f2bc d996 0ac0 0aaa 053e
000001b0: 3737 2ebf 4673 4d3f b687 633f a5e6 373e
000001c0: 42fe e6bd 5433 bec0 c423 ca3f 97e2 23c1
000001d0: 58c5 1fc0 fb20 b3c0 5a51 b5c0 a5f3 6fc0
000001e0: 97fa 54bf 52fd a1bf 5f14 643e a93c 60c0
000001f0: 8a11 1a3e 532c fbc0 3d59 34bf b0d3 5a3f
00000200: 3c08 11c0 029b 003e 55cf 58be 4230 ebbb
00000210: e365 09c0 ac31 2d40 4ce3 89c0 f841 8e3e
00000220: 0211 2a3e 6e7a 80c0 1cc9 2dc0 cb8f 1e40
00000230: 635f cec0 8ce1 30c0 20a9 6440 40fe 5f40
00000240: f09f d4bd 67a8 adbb d8b4 16bd c1f8 8c3d
00000250: d6f8 fc3b a545 e9bd 72df 24be 2f49 76be
00000260: 0581 f1bc 885a b63c 9607 fcbd 6c10 e83d
00000270: 8e94 063e a3d2 d9bc e0e7 963c 2aca ebbc
00000280: 2889 38be 45c3 7fbc 287f 44bd af46 1ebe
00000290: 90cf 3fbe 897b 6cbe 6c46 b7bd 6beb bbbd
000002a0: 347f c43e b0b2 a9bf 6940 48be fb03 6040
000002b0: 0dc2 053d f434 97c0 9129 46c0 11bd bebe
000002c0: c02e 6a3e 31b7 06be ff19 0ac0 2dd2 ec3c
000002d0: 0318 2cbf 7296 043f dd72 50bf 4df7 8c3e
000002e0: ca44 803d 0129 bac0 ed79 1b40 f749 61c0
000002f0: 9a83 b73e a29b 3f3e 8adf b6c0 2556 20c1
00000300: 97a2 1abe 1607 4dbe fc93 39be 2b20 1ebc
00000310: ab7c a43c 1fa4 49be 76f4 1cbd 82e3 9abd
00000320: b92d eebc c2ec 0ebd 0ac3 92bc cb36 2ebe
00000330: dd14 f03d 3a49 f3bd f34a 933d 19b2 2ebe
00000340: f34e 95bd 4725 95be 1176 3bbe 5f7a c5bc
00000350: 1563 7ebd 9fdb c3bc 2994 50be 4138 35be
00000360: 7e1b b2bf 6cdb 8fc0 fd50 1040 33a4 4f3f
00000370: 9cbc abbd 59e0 073f d552 923e f2c4 783f
00000380: c9cd 2340 0f4b 673e b7c2 a0c0 acaa fd38
00000390: b7dd a3bf aec8 933f 4bc9 45bf 5f73 b03f
000003a0: 4538 86bd 6f99 e5c0 bfac 1ac0 8fa8 12c1
000003b0: ddbc cdc0 1d8c a0bf 2f1d 0d3f 1b76 b6c0
000003c0: 1a07 2ebf 61f1 a1c0 1ca5 8dbd 9204 9840
000003d0: 1296 853c 10cb 1b3e 83e4 e0c0 53f1 c43f
000003e0: f5ee c13e c4ef 343d 1305 02c1 497e 0f3e
000003f0: af60 7fbf cc60 e33e 46cc 8dbf 5910 123f
-0.41252723 -1.1013757 -0.057152215 -0.5503912 -0.019903641 -1.1150815 -0.4987161 -2.9062018
-0.10745356 -0.2220016 -0.055626903 0.24005668 -0.068210445 0.46417645 0.19294642 1.6030312
0.0067821587 -3.5299826 0.3031617 -1.7195357 -0.42623168 -0.059555683 -2.7587907 -1.1126328
0.96191245 -10.854008 -1.4895939 2.9467413 0.08859969 -9.52371 -10.579109 -3.2972312
-3.5055845 -0.31440225 8.8339815 0.13800544 -0.12282179 1.3975247 -0.02508377 1.1548613
-0.13293985 -3.5421624 3.9383123 -1.7169688 -11.643643 1.5332211 -1.3882291 0.07907341
-0.050585456 -8.33733 0.09370909 2.3170764 0.2979025 -3.803177 -21.246107 4.538168
-2.8556762 0.06899336 -3.8345258 0.041534178 -1.7414125 0.46559772 0.30394885 2.0371144
-0.17114611 -11.10103 3.658422 2.7467318 -4.264762 -5.7663455 -2.2308326 -16.051922
0.0060105193 -0.39139274 0.06750467 -0.13571604 0.18806857 -0.25756338 -0.19979483 -0.33890718
-0.45417017 -0.16372378 -0.2927773 0.08093985 0.082062595 0.121761575 -0.034758817 0.10947878
-0.14295469 -0.15470175 -0.065199636 -0.13843977 -0.15728578 -0.24884559 -0.093975164 -0.20482622
0.77198404 -7.856159 0.83812946 -1.3716967 -0.057958867 -3.8335109 -5.079778 -2.6763496
0.21829024 -0.029611938 -2.165457 0.13053146 -0.68053 0.8025402 0.88878953 0.17959078
-0.112789646 -5.9437656 1.5792165 -10.24282 -2.49642 -5.597776 -5.6661806 -3.749246
-0.8319487 -1.2655432 0.22273396 -3.5037024 0.15045753 -7.8491607 -0.70448667 0.8547926
-2.2661276 0.12559131 -0.21172841 -0.0071773836 -2.1468437 2.7061567 -4.308996 0.27784705
0.1660805 -4.014945 -2.7153997 2.4775264 -6.449144 -2.7637663 3.5728226 3.4998932
-0.10382068 -0.005299616 -0.03679356 0.068833835 0.0077200932 -0.11390237 -0.16100863 -0.24051355
-0.029480467 0.022259966 -0.123061344 0.11331257 0.13142607 -0.026589697 0.018421113 -0.028782923
-0.18021071 -0.015610521 -0.04797283 -0.15456651 -0.18731523 -0.23094 -0.08948979 -0.09175762
0.38378298 -1.3257656 -0.1955582 3.500243 0.032655764 -4.725214 -3.096287 -0.3725362
0.22869396 -0.1315582 -2.1578367 0.028908813 -0.6722414 0.5179206 -0.8142527 0.27532426
0.062631205 -5.8175054 2.4293168 -3.5201395 0.35842592 0.18711713 -5.7147875 -10.021031
-0.15101086 -0.20022234 -0.18122858 -0.009651224 0.020078978 -0.19691513 -0.038319074 -0.07562925
-0.029074537 -0.03489376 -0.017915267 -0.1701309 0.11722729 -0.11879201 0.0719203 -0.17060126
-0.07290449 -0.29130003 -0.18306758 -0.024106203 -0.06210621 -0.023908434 -0.20369019 -0.1769724
-1.391464 -4.495535 2.2549431 0.81109923 -0.08385584 0.530767 0.2857882 0.97175515
2.5594351 0.22587226 -5.023769 0.0001209577 -1.2802037 1.1545618 -0.77260274 1.3785208
-0.06553701 -7.1749797 -2.4167936 -9.166152 -6.4293046 -1.2542759 0.55122656 -5.701917
-0.67979586 -5.060715 -0.06916258 4.750558 0.01630691 0.15214181 -7.0278945 1.5386146
0.37877622 0.04417397 -8.126239 0.14013018 -0.997569 0.44409788 -1.1077964 0.57056195

fc2.bias f4 [24]
00000000: 4e63 3dc0 4745 29c1 862f 38c1 b3fc 2abf
00000010: e293 a5c0 283f 70c0 df87 abbe 0679 a6c0
00000020: 9227 0abf 55b9 9ac0 f16a cdbf c16f 6d40
00000030: 9123 7d40 6f34 0740 9347 23be 10e8 46bf
00000040: 0d8c 60c0 34ae 08bf 48d5 f1bd 1c0c acbe
00000050: c54f 69c0 7cef b03f bd1b 8ec0 ff21 5cc0
-2.959186 -10.579413 -11.511602 -0.6679184 -5.174302 -3.7538548 -0.335021 -5.2022734
-0.5396663 -4.8351235 -1.6048261 3.709946 3.9552958 2.1125753 -0.15945272 -0.7769785
-3.508548 -0.5339081 -0.11808258 -0.3360299 -3.6454937 1.3823085 -4.440886 -3.439575

fc3.weight f4 [4, 24]
00000000: cf77 f6be a532 9bbf 405a 6e40 de13 8c3e
00000010: 5d7b 2fc0 30b2 bd3f b673 b3be afc8 52c0
00000020: a4a8 3d3e c31b 53bd 78c2 493e f9e6 1040
00000030: ee65 09c1 26d2 86c0 7611 3e3e 9af4 1bbe
00000040: 9823 c93e 7103 0cbe 06b1 9b3f 0a20 4f3d
00000050: 5b04 d3bd 5f8a 28c0 6857 65bf d431 68be
00000060: 3b3e cdbe df6c eebf e761 96c0 4464 28be
00000070: 2f19 02c1 3dbc e43f ef6e c0be b88f 7f3d
00000080: 604e 0ebd 25d1 b2c0 5091 873c b09b 0040
00000090: 1ee4 833e aa06 68c0 0393 d83b 8c4a 93be
000000a0: b8fa 30be 4772 4b3e 4f2b a53f 53d4 733d
000000b0: e24b 97be 6b8c 0ec0 66f3 3bbe cb66 f73e
000000c0: 7b18 75be c6cf 88bd e819 b7c0 c52e a53c
000000d0: ef54 3cbf 1704 72c0 80f9 56be 235c 17bf
000000e0: 4a03 0abe 9328 8fbe dc07 f1c0 07b4 37be
000000f0: 4f7d 27c1 4647 65c0 d8d0 1ebe 2ae2 1abe
00000100: d6d0 13c0 81f9 963d 9ac2 dfc0 24f8 58be
00000110: 56c6 c5bd 199c 29bf e18a 31bd 9e25 76c0
00000120: ddd4 143e 32b3 70c0 e275 47c0 43a0 1cbe
00000130: ae37 f33f 3d5a c73e 8df0 dbbe 4ff7 983f
00000140: 999b a9bd f2a3 9ebf 34cd 2abe 6894 1d3d
00000150: d7cc 463f 2e2f db3c 868e f23c 9092 91be
00000160: 1e4e 39c0 4d5a 2d3d fa8c 2c3d d785 923d
00000170: 8a9f d5be c16c 02c0 75a3 ba3e 76d5 26c0
-0.48138282 -1.212483 3.7242584 0.27358907 -2.7419045 1.4820004 -0.35049218 -3.2934988
0.18521363 -0.051540148 0.1970309 2.2640975 -8.587385 -4.213153 0.18561348 -0.15230027
0.39284968 -0.13673188 1.2163398 0.050567664 -0.10303565 -2.6334455 -0.89586496 -0.22675258
-0.4008654 -1.8626975 -4.699451 -0.16444498 -8.131148 1.7869946 -0.37584636 0.06239292
-0.034742713 -5.5880303 0.016548783 2.0095024 0.25759977 -3.6254067 0.006609322 -0.28767812
-0.17283142 0.19867812 1.2903842 0.05952866 -0.29550081 -2.2273204 -0.18354568 0.48320612
-0.2393512 -0.06680255 -5.7219124 0.020163903 -0.735671 -3.7814996 -0.20993614 -0.59124964
-0.13477817 -0.27960643 -7.5322094 -0.17939769 -10.468093 -3.5824752 -0.15509355 -0.15125337
-2.3096213 0.07371808 -6.992505 -0.21188408 -0.0965697 -0.6625381 -0.043345336 -3.846046
0.14534326 -3.7609372 -3.11657 -0.1529551 1.9001367 0.38936034 -0.42956963 1.1950473
-0.08281631 -1.2393782 -0.16679841 0.03847161 0.7765631 0.026755895 0.029608976 -0.2843213
-2.895393 0.042322446 0.042126633 0.07154434 -0.4172328 -2.0378878 0.36452833 -2.6067786

fc3.bias f4 [4]
00000000: 593d ffc0 3c23 22c1 dfd8 5bc0 3ae7 69c0
-7.9762387 -10.133602 -3.4351118 -3.654738
