Classics/dqn_model.pth (torch, 6236 bytes, 6 tensors)

fc1.weight f4 [24, 8]
000000 10 2e 35 c0 68 23 d7 3f 9c 1c b6 3f 77 84 8a 3f
       -2.8309364 1.680768 1.4227481 1.0821675
000010 c6 a6 1f bf db 7b 58 3f 30 9b a1 3e d6 6b 00 bf
       -0.6236385 0.8456399 0.3156371 -0.50164545
000020 c1 f3 49 3f 19 a2 d9 3d e6 37 74 3f 3d d4 a6 3e
       0.78887564 0.10626621 0.95397794 0.325838
000030 7f 50 f0 3e c8 4a 5d bf 83 e4 2b 3f 00 4a c1 3d
       0.46936414 -0.8644223 0.67145556 0.094379425
000040 04 78 47 3e 4c af 90 3f 71 32 83 3f 7f 14 81 3f
       0.19479376 1.1303496 1.0249768 1.008438
000050 d3 8b 5d 3f 7d b3 be be bb f2 6b 3f 33 28 2f 3f
       0.8654148 -0.37246314 0.9216725 0.68420714
000060 d2 c2 8c 3f 24 07 96 3d 3e 14 48 bd 73 6f b3 3f
       1.0996954 0.07325581 -0.04884743 1.4018387
000070 c2 39 84 bf af db 32 bf 29 6a 2c be f8 fc b6 be
       -1.0330126 -0.6986646 -0.16837372 -0.35739875
000080 f2 15 9d 3f 3f 2a 05 40 a4 62 3b bf 63 0c 75 be
       1.2272322 2.0807035 -0.7319739 -0.23930506
000090 1c 38 30 bf b8 6d ce 3d 86 28 d7 be 32 59 29 bf
       -0.68835616 0.10079521 -0.42023104 -0.66151726
0000a0 e5 dc 87 3f af 5b 5d 3f 0d 2c b9 bf 45 ff a3 3f
       1.0614287 0.86468023 -1.4466568 1.2812277
0000b0 60 19 84 be f5 f5 96 bf 92 10 c3 3f cc 9d 02 c0
       -0.2580061 -1.179381 1.5239432 -2.0408812
0000c0 d3 72 03 40 b9 e2 98 3f 27 cb 51 bf c4 c0 c5 bf
       2.0538833 1.194419 -0.8195061 -1.5449452
0000d0 b0 27 58 3e 8f ab 28 bf 49 d0 30 3f be 38 cb be
       0.2110889 -0.6588678 0.6906782 -0.39691728
0000e0 2d d1 63 3e 49 88 82 bf c5 34 37 bf be 29 99 3e
       0.22247763 -1.0197841 -0.71564895 0.2991466
0000f0 ed 03 d7 3f 61 35 b9 3e fc e4 c2 3e 25 83 ca be
       1.6798073 0.36173537 0.38065326 -0.3955318
000100 4a 99 1e 3f ae 52 6a 3f 66 fc c6 be fe 79 dd 3f
       0.6195265 0.9153241 -0.3886444 1.7302854
000110 ea 4d da 3f 9e de cf 3f 65 ae ba bf 7c bf ad 3e
       1.7055027 1.6239812 -1.4584471 0.33935153
000120 5c 12 03 3f d9 8a 3a bf 8e b6 be 3f e7 26 34 3e
       0.5119989 -0.72868115 1.4899461 0.17592965
000130 bc 53 68 3e 71 8a 4d bf c9 6e ed bc d8 73 34 bf
       0.22688192 -0.8028937 -0.02898349 -0.70489264
000140 50 e6 0d 3f a6 1a 9b 3f be c6 d6 3f 14 f8 2e 3b
       0.55429554 1.2117507 1.6779401 0.002669816
000150 4c 71 17 bf 9a 3b 93 be 29 ba 90 3c c1 fa 83 3f
       -0.5915725 -0.2875641 0.017666893 1.0310899
000160 f9 1f 28 3f 56 49 15 c0 74 59 c6 3f 9e 02 a1 3f
       0.65673786 -2.332601 1.5496049 1.2578924
000170 1f eb 04 be c6 59 f9 3e ca da 17 bf d3 63 18 bf
       -0.12980317 0.48701304 -0.5931822 -0.5952732
000180 b0 db 17 3f 7c 10 ab bf 68 6c 6a 3f dd 5b 49 bf
       0.5931959 -1.3364406 0.91571665 -0.786558
000190 c0 92 cd 3e d5 12 90 bc 83 f2 8e 3f 21 ca 47 be
       0.40151024 -0.017587105 1.1167759 -0.195107
0001a0 30 27 8f bf 9a 13 2b 3f 3c b8 3c 3f 43 d1 be 3f
       -1.1183834 0.66826785 0.7371862 1.4907612
0001b0 f0 d4 09 3f ea d0 83 be b2 2f 61 c0 e8 8f 3c c0
       0.5384054 -0.25745326 -3.518536 -2.9462833
0001c0 bf 66 64 3f 1c 04 ef bd 21 35 06 3d 3d 15 63 3f
       0.8921928 -0.11670706 0.03276551 0.8870428
0001d0 1b 0a 0e 3e 99 65 8c 3f 51 03 99 bf c3 2d b5 3f
       0.13871042 1.0968505 -1.1954137 1.415459
0001e0 f2 df 29 be 28 5f bd 3d aa 41 ac 3f 0d 32 a0 3f
       -0.16589335 0.09246665 1.3457539 1.2515274
0001f0 f2 20 ec bf 76 26 b5 be ad b1 7a 3f f9 c1 7c be
       -1.8447554 -0.35380906 0.9792736 -0.2468337
000200 6f 99 b8 3b 41 8d 21 3f fd 41 8e be a3 c1 8e 3f
       0.005633525 0.6310616 -0.2778472 1.1152843
000210 db c9 35 3f bb cb 99 bf 01 81 92 bf 00 57 39 3e
       0.7101113 -1.2015299 -1.1445619 0.18099594
000220 c2 5f ca 3f 59 7c 07 3f a6 31 f3 3e 6c a7 ed bf
       1.5810473 0.52924114 0.47498816 -1.8566718
000230 3d 96 09 be 45 09 4b bd 07 3a 14 be f2 6b b9 3f
       -0.13436218 -0.049569387 -0.1447526 1.4486067
000240 36 cc a6 3f d5 df 02 3f 8e 9f 98 3f e8 4b f8 3e
       1.303107 0.5112279 1.1923692 0.48495412
000250 31 03 65 3f 03 a4 38 3f 39 24 5e 3f 6e 4a 0c be
       0.89457995 0.7212526 0.8677402 -0.13700268
000260 5f e7 38 3f 8b e6 ce bf ad 11 ad 3f a5 80 d9 3f
       0.72228044 -1.6164106 1.3521019 1.6992384
000270 71 89 35 be 8e 3a 6a be 5d 52 84 bf fe bf 41 be
       -0.17728211 -0.228739 -1.0337635 -0.18920895
000280 e6 55 1c 3f bb f9 26 3f a3 b2 ed 3f 86 85 97 3d
       0.6106857 0.6522481 1.8570141 0.073985144
000290 f2 46 70 3f 47 9c 8a 3f 8b cf 68 3f eb 4f 3b bf
       0.93858254 1.0828942 0.90941685 -0.7316882
0002a0 99 17 bb 3f bd 27 cd 3e 64 87 81 3e c6 05 bd 3f
       1.4616576 0.4006938 0.25298607 1.4767387
0002b0 1f 39 97 3f a9 41 b1 be e7 00 3a 3f f0 e8 ec bc
       1.1814307 -0.34620407 0.72657627 -0.028919667
0002c0 69 05 6b bf 0c d7 6a bf b1 1f c9 bf 55 ce 56 3f
       -0.9180513 -0.91734385 -1.5712796 0.8390859
0002d0 f6 97 8c 3f 74 2e 93 3f ed 59 5c bd 70 9f 8d be
       1.0983875 1.1498551 -0.053796697 -0.27660704
0002e0 99 2d 92 3f ca df ae be 4f 1b 2e 3d 85 36 3a 3f
       1.1420165 -0.34155113 0.042506512 0.7273944
0002f0 03 c9 18 bf 51 c8 e7 3e 7f 7c a2 3f 12 a5 45 c0
       -0.5968172 0.45270017 1.2694243 -3.0882

fc1.bias f4 [24]
000000 e0 af 9e be 94 61 88 bf f1 c6 84 bf 1b b3 db bf
       -0.30993557 -1.0654778 -1.0373212 -1.7164034
000010 df 2b d2 be 85 9f fb bd 64 ca 6b bf df b0 82 3f
       -0.41049096 -0.12286285 -0.921057 1.0210227
000020 39 96 29 bf bc be 85 bf d8 7d 73 be 08 25 91 bf
       -0.66244847 -1.0448833 -0.23778474 -1.1339426
000030 0f ff ce 3f b8 aa 9b be 94 7e b3 bf 3c 35 f9 be
       1.6171588 -0.30403686 -1.4023004 -0.48673427
000040 d6 38 2d 3f c5 8b 02 40 71 8e 8a bf 8c 7e 0c bf
       0.6766485 2.0397809 -1.082472 -0.54880595
000050 ba 2d 7e bf 94 ed c4 be 74 31 63 3f 82 fc ba be
       -0.99288523 -0.38462508 0.88747334 -0.36520773

fc2.weight f4 [24, 24]
000000 21 ba 35 be 05 f3 43 be 1b 53 ca 3d 67 51 87 3d
       -0.17746784 -0.19135673 0.09879132 0.06607323
000010 ae 28 2a bd c7 6d 4e be 28 0e c2 bd 3e 25 15 3e
       -0.0415427 -0.20159064 -0.09475356 0.14564988
000020 02 a4 9d 3d a7 8a 40 bd df d5 8b bd e2 19 60 bd
       0.07697298 -0.04700723 -0.06827902 -0.054712184
000030 60 e8 35 3d 6d 56 55 be 6f e8 1f 3e 3c 87 0c be
       0.044411063 -0.2083375 0.1561601 -0.13723463
000040 48 a8 30 be c0 cd f3 bd 36 a2 c7 bd 7f c8 00 3c
       -0.17251694 -0.11904478 -0.09747736 0.007860302
000050 d7 8c 1e be 82 11 2e be 2c b9 6f be 4c 63 17 be
       -0.15483414 -0.16998866 -0.23410481 -0.14783973
000060 2d 14 b0 bf 96 0e 3b 3e 7a 6b a4 be 3c aa 38 3f
       -1.3756157 0.18267283 -0.32113248 0.7213476
000070 6a 4a 5c bf bf 67 ac 3f ae b4 0e be 86 38 43 3f
       -0.86051047 1.3469161 -0.13936111 0.7625812
000080 bd 96 96 bf 69 51 6c 40 26 dd b6 3e 7b ed fe 3f
       -1.1764752 3.692469 0.35715598 1.9916223
000090 0e 50 70 3f a4 03 17 40 38 32 19 3f f7 f9 5f bd
       0.93872154 2.3595972 0.5984225 -0.054681744
0000a0 c4 d2 30 3f 8f 04 67 3e 4c 35 ff be c2 2e 14 40
       0.690716 0.22560333 -0.4984535 2.3153539
0000b0 ac db 06 bf ec 5a f6 3d d8 fc 0f 3e 45 c2 e4 bc
       -0.5267894 0.12029061 0.14061296 -0.027924666
0000c0 30 5c 6e bf d6 55 8d 3f c0 0f 0d 40 6e 25 cd 3f
       -0.93109417 1.104182 2.2040863 1.6027048
0000d0 cc 1b 9b 3f 67 47 d0 be e5 b3 89 3f 66 c0 84 bf
       1.2117858 -0.40679476 1.0758024 -1.0371215
0000e0 55 c9 8b 3f a5 46 1f bf 15 90 25 3f 6e e9 ce be
       1.0920817 -0.6221717 0.64672977 -0.40412468
0000f0 71 14 b8 bf 26 5c 17 3f 23 fc 1a 40 5d 6e b6 3f
       -1.4381238 0.5912498 2.4216392 1.425243
000100 b1 bb d2 be 39 8d 8f be 06 12 13 40 56 e6 bd be
       -0.41158822 -0.28037432 2.297975 -0.37089795
000110 02 d4 fb 3f 69 31 2b 3f 02 78 00 bd 7e da c9 3f
       1.9674075 0.6687227 -0.03136445 1.5769804
000120 69 1d 13 be 2f 2a 08 3e e7 b6 e8 3d 5f b3 e0 bb
       -0.14366688 0.13297342 0.11363011 -0.00685732
000130 eb 90 b9 3c 26 4f 42 be ee e3 08 be 3a b7 8b 3d
       0.02265211 -0.18975505 -0.13368198 0.06822057
000140 9f 30 43 be 15 ba c9 b9 83 e4 a5 3d db 0a 44 be
       -0.19061516 -0.0003847635 0.08100226 -0.19144766
000150 9b 39 a7 bd cd a5 f1 bd ec b5 16 be 0e ac 2b 3e
       -0.08165284 -0.11799202 -0.14717835 0.16764852
000160 93 ba 50 3e 14 bb f4 bd 56 09 28 be 67 4d 66 be
       0.20383672 -0.11949745 -0.16409811 -0.22490464
000170 ac e7 6c be e4 ac 5a be aa 01 e4 bd 65 b9 23 3e
       -0.23135251 -0.21355015 -0.1113313 0.15988691
000180 0c c2 26 40 99 e4 2c 3d a2 68 a3 3f 4b 37 0c 40
       2.6055937 0.042210195 1.2766306 2.1908748
000190 ac ce b1 bf d5 d9 e6 3e 48 59 b3 c0 cb 13 03 c0
       -1.3891196 0.45088068 -5.6046486 -2.048083
0001a0 2d 13 c0 3f 7e 58 4f be 8b 10 87 3f 93 7d cd 3f
       1.5005852 -0.20248601 1.0551924 1.6053947
0001b0 8e 37 2f c0 ec 73 78 3f 5c cc 0b 3f 11 04 16 3f
       -2.7377658 0.9705188 0.546087 0.58599955
0001c0 63 00 09 3f 60 25 b2 bf 3a 5d b7 3e bc ee e4 3f
       0.53516215 -1.3917656 0.35813314 1.7885356
0001d0 1c 73 f6 3f ca 27 ae be 50 37 a7 bf e5 bc 01 3f
       1.9253879 -0.34014732 -1.3063755 0.50678855
0001e0 d1 fd 04 40 30 96 0b 3f d1 9f 6e be 1f 78 17 bf
       2.0779917 0.5452604 -0.23303153 -0.59167665
0001f0 a0 bd f0 be 48 f3 04 40 d7 0c f4 3e 71 a1 66 3f
       -0.47019672 2.0773487 0.47666046 0.9009009
000200 b6 d0 26 3f 07 4b fb bf 33 6b 00 3f 60 e8 fe be
       0.6516222 -1.9632272 0.50163573 -0.49786663
000210 e1 23 85 3f 87 59 b1 be e8 8d 1c bf 7d fc 52 3e
       1.0401574 -0.34638616 -0.6115403 0.20604129
000220 63 bf 4e be 71 eb c2 3f b4 42 3d be 64 b0 0d bf
       -0.20190196 1.5228101 -0.18482476 -0.55347276
000230 f8 5b c5 be 3b cb 55 3f 38 ad 03 3f 0d 4d c5 3e
       -0.3854673 0.8351323 0.51436186 0.38535348
000240 17 2a 33 3d 54 27 43 be 74 6a 6e be 70 47 87 bd
       0.043741312 -0.19057971 -0.23282796 -0.066054225
000250 c0 32 c9 bd 67 ca e9 bd 63 5c f3 3d 53 83 1a be
       -0.09824133 -0.11415558 0.11882856 -0.15089159
000260 3e 18 6d be 49 ea 80 bd 96 ee 48 be bc 84 24 be
       -0.23153779 -0.06294686 -0.19622263 -0.16066259
000270 96 b7 80 3d e4 db 0d 3e 8c 48 0d 3e 54 cd f1 3d
       0.06285016 0.13853413 0.13797206 0.11806741
000280 71 d7 7b 3d 0c 8b 05 be e2 26 71 be 4f 65 10 3e
       0.061484758 -0.13041323 -0.23549989 0.14101146
000290 cc 69 19 3e 5d 80 ba bd 0a 51 d3 bd 4c be 55 be
       0.14981765 -0.091065146 -0.10318191 -0.20873374
0002a0 ae a2 6c bf d2 28 1d 3f 2e 1d 17 40 84 10 97 3f
       -0.9243573 0.6139041 2.361156 1.1801915
0002b0 9d e2 2d 40 29 af 9c 3e b2 b7 ac 3f 54 59 4b bf
       2.7169564 0.30602387 1.3493559 -0.7943318
0002c0 a1 ca 20 3e 2f a2 e2 3e 83 de 8c 3f 8a d4 03 3e
       0.15702297 0.4426436 1.1005405 0.12874046
0002d0 54 05 1a bf 6d c1 05 40 00 c2 3a 40 a7 b3 11 40
       -0.6016438 2.0899308 2.9180908 2.27659
0002e0 a9 ed 17 3f 53 96 2e bf 69 fa aa 3f 8a 0f 52 3d
       0.59347016 -0.68198127 1.3357669 0.05128435
0002f0 ea 73 6f 3f 12 61 07 3f c9 da ed 3d 1b b0 08 40
       0.93536246 0.5288249 0.116139956 2.1357486
000300 67 8f c8 3d ba 8e 95 bc 7e 68 6a be 3e 08 3a be
       0.09792977 -0.018256534 -0.22891423 -0.18167207
000310 6a a5 19 ba b5 74 12 bb a3 da af 3c 84 2a 26 be
       -0.00058611354 -0.0022347395 0.021466559 -0.16227156
000320 05 c8 50 be d4 a9 88 bd f3 a9 28 be 54 e9 9d bd
       -0.20388801 -0.06673017 -0.1647108 -0.077105194
000330 36 78 1d 3d 27 02 d0 3d 9b 5d 01 3e 47 37 33 be
       0.03844472 0.101566605 0.12633364 -0.17501555
000340 0e d5 b7 3d ce b3 af 3c dc 27 d7 3d 4f fb 2b 3d
       0.08976184 0.021448042 0.105056494 0.041987713
000350 67 1c 54 bd 25 60 1e be 0f 4f 53 be 9e 20 df 3d
       -0.0517849 -0.15466364 -0.20635627 0.10894893
000360 d7 b8 1a be 25 ff 51 be d5 d6 01 be b0 15 0c 3f
       -0.15109573 -0.20507486 -0.12679608 0.5472059
000370 63 52 a5 3e 97 c7 22 bf 7b 33 80 3d 48 0a 08 3f
       0.3228942 -0.635858 0.06259819 0.5314069
000380 80 51 a0 3e 5e ee 1a 3f 6c 35 08 bf 81 51 b0 3e
       0.3131218 0.6051997 -0.53206515 0.34437183
000390 80 8f 9c 3d da 33 b9 3e 5e e0 16 3f 5b 7a 4e bf
       0.07644558 0.36172372 0.5893611 -0.8065545
0003a0 58 16 a2 3d 3c 2c 1b bf 32 a8 e4 be e3 b6 61 be
       0.07914418 -0.6061437 -0.44659573 -0.22042422
0003b0 ac 00 b2 be de fe 8d 3d b7 0d 20 3f 7a eb a0 3e
       -0.34766138 0.06933378 0.6252093 0.31429654
0003c0 a4 1e be 3e 9b 54 1f 3f 94 ed b4 3f 99 d7 c0 3f
       0.37132752 0.6223847 1.4135003 1.5065795
0003d0 d1 ca e1 3f 24 f3 0d c0 91 1a 08 40 26 86 2f c0
       1.764002 -2.2179651 2.1266215 -2.7425628
0003e0 cb 54 84 3e ab fe 0d 40 16 63 c2 3f 54 5a 1f 3f
       0.25845942 2.2186687 1.5186489 0.62247205
0003f0 fb 43 dd bf d6 94 ac 3f e9 81 99 3f 78 a9 0a bf
       -1.7286371 1.3482921 1.199277 -0.5416484

fc2.bias f4 [24]
000000 eb c1 84 3d 73 16 81 3e 60 27 60 bf b6 ab ba bb
       0.064822994 0.2521244 -0.8756008 -0.005696739
000010 8c cc 19 be 79 bf c8 3f dc 28 1d be b3 4b 1f bf
       -0.15019435 1.5683433 -0.15347618 -0.6222488
000020 fd 32 39 be 45 a3 7e be 60 c3 55 bf c4 92 15 3e
       -0.18085857 -0.2486697 -0.83501244 0.14606768
000030 8f 46 45 be 04 06 b5 3e 86 20 8e bf 3e d4 9f bd
       -0.19265197 0.35356152 -1.1103675 -0.07804154
000040 a5 c8 9d bd 89 5b 9f bf 71 f3 04 bf 0e be 49 3e
       -0.077042855 -1.2449809 -0.5193396 0.19701406
000050 b3 f0 6b be 8a 36 11 bf b0 06 84 bf b8 90 b0 bf
       -0.23041038 -0.56723845 -1.0314541 -1.3794165

fc3.weight f4 [4, 24]
000000 a5 29 3e 3e 1f c1 8e 3f 60 22 66 bf e5 e3 67 be
       0.18570574 1.1152686 -0.898962 -0.22645529
000010 13 29 32 bf 66 74 87 3f 72 54 a8 bc ec 80 de 3d
       -0.69593924 1.0582397 -0.02054808 0.10864434
000020 9a 70 2b 3e 7b d1 9a 3f d7 c4 3c bf 2b 5d 2f 3e
       0.16742173 1.2095178 -0.73737854 0.17125385
000030 2f 7a b3 3b be d8 96 bd 28 ce 85 bf 90 b1 19 3e
       0.005477212 -0.07365559 -1.0453539 0.15009141
000040 a9 1f 39 3e eb a5 cf c0 dd ef 9d 3f 4a c8 23 3f
       0.18078484 -6.4890037 1.2338825 0.6397749
000050 5e 5c f9 3c 89 c0 01 c0 27 74 01 bf bf 85 c7 3f
       0.030439552 -2.0273764 -0.5056786 1.5587691
000060 49 8e 33 3d 5b b8 b8 3f b2 97 74 bf b8 cf d3 3c
       0.043836866 1.4431261 -0.9554397 0.025855884
000070 73 83 c5 bf 8a cd 85 3f 83 9d 6b 3d cc 87 55 be
       -1.543074 1.045335 0.05752326 -0.20852584
000080 49 72 32 3e e1 9b 48 3f df 83 86 3f cf 97 d1 3d
       0.17426409 0.7836285 1.0508994 0.10234033
000090 ba 4a cb bd 22 21 3b bf 0d 68 2c 3f 07 fb 10 bf
       -0.09926362 -0.7309743 0.6734627 -0.5663304
0000a0 e1 e2 37 bd 43 fa 9f 3f f2 29 82 bf df 81 af 3f
       -0.044894103 1.2498249 -1.0169051 1.3711509
0000b0 b4 28 cc bd 33 16 d3 bf 8c 19 9c c0 d8 30 b8 c0
       -0.09968701 -1.649115 -4.8781185 -5.7559624
0000c0 64 3d 17 3e 14 29 5a be 38 9b 9b bf 95 67 7e 3c
       0.14769512 -0.21304733 -1.2156744 0.015527626
0000d0 27 d7 e9 3f d7 d0 d0 3f b7 f8 d4 bc 50 44 f8 bf
       1.8268784 1.6313733 -0.025997503 -1.9395847
0000e0 dd 97 08 3e fe 6e 87 3f fd 15 c7 bf 6a 97 29 3e
       0.13339181 1.0580747 -1.5553585 0.16561666
0000f0 4a cb ff bc e4 a7 c6 3e d5 91 40 3f 25 e6 58 3f
       -0.031224865 0.38799965 0.7522252 0.8472617
000100 71 eb 09 bd 28 5b c7 be 38 c8 e1 bf 01 f1 b7 bf
       -0.0336718 -0.38936734 -1.7639227 -1.4370424
000110 2f c1 fb bd 4c 6f bf be ab c6 d1 3f 82 bb bf 3e
       -0.12292706 -0.373896 1.6388754 0.37447745
000120 6d 0b 4a 3a 70 6a fa 3f 90 98 81 bf af f0 47 be
       0.0007707391 1.9563732 -1.0124683 -0.19525407
000130 63 c2 59 bf 73 8f a2 3d dc 36 e4 bd 5f e2 7e bf
       -0.85062236 0.07937517 -0.11143276 -0.99564165
000140 6a 24 62 bd 24 e1 8a 3f 68 46 63 bf 6f 67 01 be
       -0.05521051 1.0849957 -0.88779306 -0.12637113
000150 05 b8 8b 3d 6e 7d 6f 40 53 fa 9e c0 05 17 a0 bf
       0.06822208 3.7420306 -4.968057 -1.2507025
000160 99 f3 fe 3d b7 25 a5 be 85 0c a2 bf a2 d3 b1 bd
       0.12448806 -0.32255337 -1.2660071 -0.08682944
000170 4d 4d 6d 3d bd 01 06 3f 6b 47 3b 3f a6 7d 9c bf
       0.057935048 0.523464 0.7315585 -1.2225845

fc3.bias f4 [4]
000000 76 58 37 3f 9e 3a 57 3f bd 7f 02 40 db c9 6d 3e
       0.71619356 0.8407382 2.0390465 0.23221533
