Classics/dqn_model.pth (torch, 9112 bytes, 8 tensors)

fc1.weight f4 [24, 8]
0	0xbe91c039	-0.28466967
1	0xbeb205e5	-0.34770122
2	0xbd746151	-0.05966312
3	0xbea0b9b4	-0.3139168
4	0xbe8fe589	-0.2810481
5	0xbf1d6d55	-0.6149495
6	0xbecb8438	-0.39749312
7	0xbe87b44a	-0.26504737
8	0xbe90c233	-0.28273162
9	0xbe9ca09b	-0.30591282
10	0x3e1ba835	0.15200885
11	0x3e6b91c7	0.23004828
12	0xbdea23ce	-0.114326105
13	0xbd844c89	-0.064599104
14	0xbe2de128	-0.16980422
15	0xbdd95c1c	-0.106132716
16	0x3c7daa28	0.015482463
17	0xbf2d751a	-0.6775681
18	0xbf15e199	-0.5854736
19	0xbf10501e	-0.5637225
20	0xbed065f2	-0.40702778
21	0xbf23d618	-0.63998556
22	0x3e6efabc	0.23337835
23	0xbf2f8744	-0.68565774
24	0xbe7a291d	-0.24429746
25	0xbee70503	-0.4512101
26	0x3ed41bac	0.41427362
27	0xbe199dd5	-0.15001614
28	0xbe77eeab	-0.24212138
29	0xbdccf15f	-0.100069754
30	0x3dd948c1	0.1060958
31	0xbf2bd8d0	-0.67127705
32	0xbe48d73e	-0.19613358
33	0xbeba1574	-0.36344492
34	0xbe35ba7a	-0.17746916
35	0xbeba70fd	-0.36414328
36	0xbdd9c0f2	-0.106325045
37	0xbe3607a5	-0.17776354
38	0xbec00191	-0.37501195
39	0xbf1c21da	-0.60989153
40	0xbe95d9d4	-0.29267752
41	0x3e3ee5fa	0.18642417
42	0xbc92c434	-0.017915823
43	0xbf117314	-0.5681622
44	0xbe83dbb6	-0.25753564
45	0xbe430587	-0.19045077
46	0xbdec7ebf	-0.115476124
47	0xbec35013	-0.3814703
48	0x3f76e570	0.96443844
49	0xbd470866	-0.048591994
50	0x3f775fbc	0.96630454
51	0x3f9cae03	1.2240604
52	0xbee53980	-0.44770432
53	0xbfa54e27	-1.2914475
54	0xc0612996	-3.5181632
55	0xbf0daf57	-0.5534567
56	0x3e030f28	0.1279875
57	0xbf062386	-0.52397954
58	0xbeef3aed	-0.46724644
59	0xbed54cfd	-0.416603
60	0xbd14c11a	-0.03631697
61	0xbf7085e4	-0.939543
62	0xbf7cb9cd	-0.9872101
63	0xbf8dcc2f	-1.1077937
64	0xc004e006	-2.0761733
65	0xbf308e2f	-0.68966955
66	0xbf18852f	-0.5957822
67	0xbe022f56	-0.1271337
68	0x3e03fa81	0.12888528
69	0xbf1b8852	-0.60754883
70	0xbfa2bb04	-1.2713323
71	0xbe9c63da	-0.3054493
72	0xbe2f7360	-0.17133856
73	0xbeeb8ba3	-0.46004972
74	0xbf35ee83	-0.71067065
75	0xbed69ee4	-0.419181
76	0xbce935ff	-0.02846813
77	0xbee39b9b	-0.44454655
78	0x3c4b6ae1	0.012415619
79	0xbf736d81	-0.95088965
80	0xbe8fcab9	-0.28084353
81	0xbdb1c772	-0.08680619
82	0x3e928d8f	0.28623626
83	0xbe8d2c14	-0.2757269
84	0x3e1f1e44	0.15538889
85	0xbf0c5ee8	-0.54832315
86	0xbea0d10f	-0.314095
87	0xbea49536	-0.3214509
88	0xbefd7fb4	-0.49511492
89	0xbef03757	-0.4691722
90	0xbef94c8a	-0.48691207
91	0x3ca176b9	0.019709932
92	0xbf396f12	-0.72435105
93	0xbf5cabdb	-0.8619973
94	0xbe88c985	-0.26716247
95	0xbf349e91	-0.70554453
96	0xbfce5daa	-1.6122334
97	0xbed44ba4	-0.4146396
98	0xbf7fb964	-0.9989226
99	0xbe8ec39d	-0.27883616
100	0x3f832c93	1.0247978
101	0xbf290c42	-0.6603433
102	0xbf1ce186	-0.6128162
103	0xbf1fcb49	-0.62419564
104	0x3ee39658	0.4445064
105	0x3ee52ee8	0.4476235
106	0x3e8f2021	0.279542
107	0x3f35f67e	0.7107924
108	0xbf215d1e	-0.6303271
109	0xbf217e9c	-0.63083816
110	0xc0082964	-2.1275263
111	0xbe59a151	-0.21252944
112	0x3eb9f7f9	0.36322
113	0xbf15a0e5	-0.5844863
114	0xbed40b5d	-0.4141492
115	0xbf1f2d20	-0.6217823
116	0xbee75916	-0.45185155
117	0xbee95f18	-0.45580363
118	0xbdb911c4	-0.09036592
119	0xbee2b8ae	-0.44281524
120	0xbe1ccd64	-0.15312725
121	0xbcc425c6	-0.023943793
122	0xbf4c9490	-0.7991419
123	0xbeb480ee	-0.35254616
124	0x3e910ca7	0.28329965
125	0xbf178b74	-0.59197164
126	0xbea253a5	-0.3170444
127	0xbe74c32f	-0.23902582
128	0x3ee85261	0.4537535
129	0xbfd99844	-1.6999593
130	0x402daa90	2.7135353
131	0x3fe8ec24	1.8197064
132	0xbefc7e3e	-0.49315065
133	0xbfeb4300	-1.8379822
134	0xc033f148	-2.8116016
135	0xbfb145a2	-1.3849375
136	0x3d3147ed	0.043281484
137	0xbe843c7e	-0.25827402
138	0xbd359401	-0.0443306
139	0xbe2c962c	-0.16854161
140	0xbe7470d4	-0.23871166
141	0xbf14b5b3	-0.5808975
142	0xbed2dd37	-0.411844
143	0xbe6ce399	-0.23133697
144	0xbeee9e68	-0.4660523
145	0x3ee2ed01	0.44321445
146	0xbeb58a9d	-0.35457316
147	0xbe9291a9	-0.28626755
148	0xbdad7d77	-0.08471196
149	0xbf5a17af	-0.8519239
150	0xbe6bec1f	-0.23039292
151	0xbf252ade	-0.64518535
152	0x3f0940cf	0.53614515
153	0xbec6e4f5	-0.38846555
154	0xbea5c9c2	-0.32380491
155	0xbdd3d832	-0.1034397
156	0xbf1c51d1	-0.6106234
157	0xbf47ee62	-0.7809812
158	0xbc88d0c4	-0.01670111
159	0xbeb137d4	-0.34612906
160	0x3f2b2844	0.66858315
161	0xbec556a1	-0.38542655
162	0x3f521446	0.82062185
163	0x3f5b16bd	0.8558157
164	0xbec1a58e	-0.3782162
165	0xbfc0e55f	-1.5069999
166	0xc0735387	-3.801973
167	0xbf8e4f20	-1.1117897
168	0x3ef13d10	0.471169
169	0xbf326f4c	-0.69701076
170	0x3eeade44	0.458727
171	0xbe3ada3b	-0.18247311
172	0xbc043f9d	-0.008071807
173	0xbf6736a5	-0.90317756
174	0xbf6f71fc	-0.935333
175	0xbf3d912e	-0.7404965
176	0xbea660fc	-0.32495868
177	0x3ea0b5d1	0.31388715
178	0xbddf820b	-0.109134756
179	0x3e2e5aa6	0.17026767
180	0xbeaf9c04	-0.34298718
181	0xbdda5eb8	-0.106625974
182	0xbf2a5f7d	-0.66551954
183	0xbf905aa4	-1.1277661
184	0x3fed4dd3	1.8539375
185	0x3f473fa2	0.7783147
186	0xbfc034bd	-1.5016094
187	0xbf473a0e	-0.7782296
188	0x408be154	4.371256
189	0xbf0f8ea6	-0.5607704
190	0xbfb6948c	-1.4264083
191	0x3ea11b81	0.31466296

fc1.bias f4 [24]
0	0xbf5cc2bb	-0.86234635
1	0xbe7ddd80	-0.24791527
2	0xbf4bd7d8	-0.79626226
3	0xbf10f1ab	-0.56618756
4	0xbe62a10e	-0.2213175
5	0xbe5ffa8d	-0.21872921
6	0xc007b084	-2.1201487
7	0xbf73e6ff	-0.9527435
8	0xbebc897a	-0.36823636
9	0xbecc8aae	-0.39949554
10	0xbf6801f8	-0.90628004
11	0xbecfcc55	-0.4058558
12	0xbf598baa	-0.84978735
13	0xbfc7c7bd	-1.560783
14	0xbf33e168	-0.7026582
15	0xbf421b2c	-0.7582271
16	0xc06ee5d0	-3.7327766
17	0xbf398b32	-0.7247802
18	0xbe9d84e7	-0.3076546
19	0xbf142c7c	-0.5788038
20	0xbff9eca8	-1.9525347
21	0xbf18126b	-0.59403104
22	0xbea5d5cb	-0.32389674
23	0x3fa48cd5	1.2855479

fc2.weight f4 [24, 24]
0	0x3da78cf4	0.081811816
1	0x3e2d66b2	0.16933706
2	0xbee6041b	-0.44925007
3	0xbecd801a	-0.40136796
4	0xbef00dd3	-0.46885547
5	0xbda8a717	-0.08234995
6	0xbf426139	-0.759296
7	0xbf2ba40b	-0.67047185
8	0xbf0f94c5	-0.5608638
9	0xbf236005	-0.6381839
10	0x3dbd46f4	0.09242049
11	0xbd7ef817	-0.062248316
12	0xbf1ea15e	-0.61964977
13	0xbdc2ed2c	-0.09517893
14	0xbf40b425	-0.7527488
15	0xbe4e9f78	-0.2017802
16	0xbf4443b5	-0.7666581
17	0x3e29f286	0.16596422
18	0xbf24e9ce	-0.6441926
19	0x3e286f96	0.16448817
20	0xbef35067	-0.4752228
21	0xbecbe0dd	-0.39819995
22	0xbf29e05f	-0.6635799
23	0xbf0e654b	-0.5562331
24	0x3d942fe3	0.07235696
25	0xbe4fb39e	-0.20283362
26	0xbd953319	-0.07285137
27	0x3d4fd227	0.050737526
28	0xbf1e945c	-0.6194513
29	0x3f3ac75e	0.7296046
30	0xbf042e37	-0.5163302
31	0xbd4e5090	-0.0503698
32	0xbf27f8ed	-0.65614206
33	0x3e2a381b	0.16622965
34	0x3caecd5f	0.021338163
35	0x3f25252d	0.6450985
36	0xbf0e15f2	-0.55502236
37	0xbed72d6d	-0.42026845
38	0x3f30ebad	0.6910961
39	0xbd156c1a	-0.036480047
40	0x3ecaa06b	0.39575514
41	0xbdc64bb6	-0.096824095
42	0x3d1593db	0.03651796
43	0x3f03a3a3	0.51421565
44	0xbf03ccb9	-0.51484257
45	0xbee85dc6	-0.45384043
46	0x3e095cc3	0.13414292
47	0xbf0de485	-0.5542682
48	0x3e4b676a	0.19863668
49	0x3e0b8dd7	0.13628326
50	0xbf11a311	-0.56889445
51	0xbf2ae7a5	-0.6675971
52	0xbf49b8ed	-0.787978
53	0xbe3ebfb4	-0.18627816
54	0xbf107a17	-0.56436294
55	0xbed16bda	-0.40902597
56	0xbf497678	-0.78696394
57	0xbefbd3cb	-0.49185023
58	0x3db223d6	0.086982414
59	0xbc89c7bc	-0.016818874
60	0xbf1b0291	-0.6055079
61	0xbf35ae40	-0.7096901
62	0xbef80ef9	-0.48448923
63	0x3dbbf531	0.09177626
64	0xbf2bd2d1	-0.67118555
65	0x3d120ef4	0.03565879
66	0xbed12c9f	-0.40854356
67	0xbf231c4a	-0.6371504
68	0xbf23c591	-0.6397334
69	0xbf39b565	-0.7254241
70	0xbf0d81e5	-0.5527633
71	0xbf2c8471	-0.6738959
72	0xbde86b6f	-0.11348616
73	0xbc422ced	-0.011851531
74	0xbe249347	-0.16071807
75	0x3e20593a	0.15659037
76	0xbd8258ea	-0.06364615
77	0xbdb1ec92	-0.086877
78	0xbdb8d06f	-0.090241306
79	0xbdb14eae	-0.08657585
80	0x3e0b3f60	0.13598394
81	0xbe127cf8	-0.14305484
82	0x3add19ff	0.0016868709
83	0xbe1d3d02	-0.15355304
84	0xbcfc1c89	-0.030775325
85	0xbe3ac213	-0.18238096
86	0x3da47bc3	0.08031418
87	0x3dff4836	0.12464945
88	0xbe4ae12a	-0.19812456
89	0x3d11ff9e	0.035644166
90	0xbcc63746	-0.024196278
91	0x3e136c53	0.14396791
92	0x3e3a05a3	0.18166213
93	0xbe1ca917	-0.15298878
94	0xbd9f9f55	-0.07794062
95	0xbb4e8ab0	-0.003151577
96	0x3e3ba11d	0.18323179
97	0xbe118474	-0.14210683
98	0xbed2d611	-0.41178945
99	0xbf1e90f9	-0.6193996
100	0xbf0180a0	-0.5058689
101	0xbf3a5224	-0.72781587
102	0xbf4c60f8	-0.7983546
103	0xbf08d6d1	-0.53452784
104	0xbf070856	-0.52747095
105	0xbecf0ba1	-0.4043856
106	0xbe35f4b6	-0.17769131
107	0xbf29bf39	-0.6630741
108	0xbf19a16b	-0.6001193
109	0xbf31df00	-0.69480896
110	0xbee4346f	-0.44571254
111	0xbe2754ce	-0.16340944
112	0xbee79626	-0.45231742
113	0xbe036067	-0.12829743
114	0xbef7ed5c	-0.48423278
115	0xbf3c4837	-0.7354769
116	0xbf4d7307	-0.8025364
117	0xbf2a95aa	-0.6663462
118	0xbeccdecb	-0.40013728
119	0xbf28cf32	-0.65941155
120	0x3e2c1758	0.1680578
121	0x3dc1f21a	0.09470005
122	0xbd077c1d	-0.033077348
123	0xbdefe497	-0.11713522
124	0xbf4c41a4	-0.7978766
125	0xbf3b4f74	-0.7316811
126	0xbf37e8d5	-0.7183965
127	0xbf0b5075	-0.5441964
128	0xbf40dc14	-0.7533581
129	0xbefef8a5	-0.49799076
130	0xbd6a088e	-0.057137065
131	0xbf357041	-0.7087441
132	0xbf336b68	-0.70085764
133	0xbf1a2df1	-0.6022635
134	0xbf1ca687	-0.611916
135	0x3e33f525	0.17573984
136	0xbee1ab7f	-0.44076154
137	0xbde6082f	-0.1123203
138	0xbf27e3a5	-0.65581733
139	0xbf03f1c7	-0.515408
140	0xbf23e6f4	-0.6402428
141	0xbf20c6c1	-0.62803274
142	0x3cb89114	0.022530116
143	0xbf07171c	-0.5276964
144	0x3ef68371	0.48147157
145	0x3e48cce8	0.19609416
146	0xbea55930	-0.32294607
147	0xbe244dd0	-0.16045308
148	0xbe10b0b9	-0.14129914
149	0x3dca9fe3	0.09893777
150	0xbd95e5fb	-0.07319256
151	0xbeb3a094	-0.3508345
152	0x3c7f3848	0.015577383
153	0x3f3558ab	0.7083842
154	0x3ee0fbdd	0.43942156
155	0x3e9331d1	0.28748944
156	0xbe37c156	-0.17944846
157	0xbdaf903d	-0.08572433
158	0xbf160e02	-0.58615124
159	0x3f097b59	0.5370384
160	0xbec293f9	-0.3800352
161	0xbeb5a06a	-0.3547395
162	0xbe02887a	-0.12747374
163	0xbf3010b8	-0.6877551
164	0xbec1709c	-0.37781227
165	0xbe785df4	-0.2425459
166	0xbe310c95	-0.17289956
167	0xbf27e335	-0.65581065
168	0x3df71a85	0.12065605
169	0x3d57e967	0.052712824
170	0xbe1b3ba6	-0.15159473
171	0xbd935e9c	-0.0719578
172	0xbbf5dc75	-0.007503087
173	0xbe343ac5	-0.17600544
174	0x3ea05c66	0.31320494
175	0xbe088bf4	-0.13334638
176	0xbf9543f3	-1.1661361
177	0x3df0065c	0.11719963
178	0x3e12c354	0.14332324
179	0x3df29867	0.11845475
180	0xbfbb8440	-1.4649734
181	0xbed91f0f	-0.42406508
182	0xbdd42ff7	-0.10360711
183	0x3de9e629	0.11420853
184	0xb80fb1b5	-3.425936e-05
185	0xbc8f841a	-0.017519046
186	0xbd2a9815	-0.041648943
187	0x3e2f2a4a	0.17105976
188	0xbe97ec9f	-0.29672715
189	0xbf58fb54	-0.84758496
190	0x3e1f6f1c	0.15569729
191	0xc0163da7	-2.347513
192	0x3ecc566c	0.39909685
193	0xbdb91e1a	-0.090389445
194	0xbe8451a1	-0.25843528
195	0x3e4b625a	0.19861737
196	0xbc9f6dbb	-0.019461503
197	0x3c8d55c3	0.017252808
198	0xbeb99efe	-0.36254114
199	0xbefcb1f5	-0.4935452
200	0x3c91b57f	0.01778674
201	0x3ee2e54f	0.44315574
202	0x3f11121a	0.56668246
203	0x3e1b5ab2	0.15171316
204	0xbe7299a0	-0.23691416
205	0x3c813738	0.0157734
206	0xbeb735ca	-0.35783225
207	0x3f4fd459	0.8118339
208	0xbcec35ca	-0.028834242
209	0xbeaa11a9	-0.332166
210	0xbe2206c6	-0.15822896
211	0xbe4cc0d2	-0.1999543
212	0xbdf1a8c2	-0.11799766
213	0xbeace7f4	-0.33770716
214	0xbf120619	-0.57040554
215	0xbf5ef1d5	-0.87087756
216	0x3f459d7b	0.7719342
217	0x3df8e4f9	0.12153048
218	0xbf108023	-0.5644552
219	0x3dcbcf91	0.099516995
220	0x3dfdb73e	0.12388466
221	0x3c649677	0.013951889
222	0xbe58a8e4	-0.21158177
223	0x3f83c9ca	1.0295956
224	0xbe138a22	-0.14408162
225	0x3f308edc	0.68967986
226	0x3ee57746	0.4481756
227	0x3e0b9a27	0.13633023
228	0xbeebc5f8	-0.46049476
229	0xbe89fcd5	-0.26950708
230	0xbf04bcee	-0.51850784
231	0x3d9336d4	0.07188192
232	0xbe877714	-0.26458037
233	0xbea6d66a	-0.3258546
234	0xbf1c3f80	-0.61034393
235	0xbec7bc8e	-0.39011043
236	0xbdfb23d6	-0.122626945
237	0xbec04cdd	-0.37558642
238	0xbe122dce	-0.14275286
239	0xbed27932	-0.4110809
240	0x3ee20f61	0.44152358
241	0x3e197413	0.14985685
242	0xbe58fa9c	-0.2118935
243	0x3e49af66	0.19695815
244	0xbcc9bba1	-0.024625601
245	0x3bf31a3d	0.0074188993
246	0x3f0ae774	0.5425942
247	0xbf44225a	-0.76614916
248	0xbea2b19c	-0.3177613
249	0x3f17eb3c	0.59343314
250	0x3f18a8d3	0.59632605
251	0x3e465482	0.19368175
252	0xbead54e2	-0.33853823
253	0x3f00e279	0.5034557
254	0xbe880e4b	-0.26573405
255	0x3f0e2b3e	0.5553473

fc2.bias f4 [24]
0	0xbf13f609	-0.57797295
1	0xbf335749	-0.7005506
2	0xbedf22cc	-0.43581235
3	0xbe32e228	-0.17469084
4	0xbefd243d	-0.4944171
5	0xbf10260b	-0.5630805
6	0xbed7c248	-0.42140412
7	0xbf426cc0	-0.7594719
8	0xbec82185	-0.39088073
9	0xbedf4c4f	-0.43612906
10	0xbfe564b8	-1.7921362
11	0xbeb481cd	-0.3525528
12	0xbf207569	-0.62679154
13	0xbec4e9a1	-0.38459495
14	0xbf291088	-0.6604085
15	0xbea7a115	-0.32740083
16	0xbee037fe	-0.4379272
17	0xbcc17600	-0.023615837
18	0xbec917e4	-0.3927604
19	0xbfd7f9d4	-1.6873116
20	0xbeab4b9a	-0.33456117
21	0xbf2f3d06	-0.6845249
22	0xbfd2acea	-1.6459019
23	0xbf342337	-0.70366234

fc3.weight f4 [24, 24]
0	0x3f1fe36f	0.6245641
1	0x3f0fc5b5	0.5616105
2	0x3f04ef24	0.519274
3	0x3b0b1631	0.0021222944
4	0x3f478b1e	0.7794665
5	0xbedd6a0d	-0.43244973
6	0xbd833817	-0.06407183
7	0x3d2a2288	0.041536838
8	0xbf232c97	-0.63739914
9	0xbf040570	-0.51570797
10	0xbf14b1d7	-0.5808386
11	0xbeca7244	-0.39540303
12	0xbf1c608d	-0.61084825
13	0xbebaeaff	-0.36507413
14	0x3edbe1b7	0.42945644
15	0xbee20247	-0.44142362
16	0x3f4dd2ea	0.80399954
17	0xbf04d436	-0.5188631
18	0xbecf89e1	-0.4053488
19	0x3e103c56	0.14085516
20	0xbe06cd08	-0.1316415
21	0x3c5bbae7	0.01341126
22	0xbe6e1b5f	-0.23252629
23	0xbd160c02	-0.036632545
24	0x3cd110e5	0.025520751
25	0x3e1d3618	0.15352666
26	0xbe0679d2	-0.13132408
27	0x3da3576f	0.07975661
28	0xbe1e2580	-0.15443993
29	0x3d4d768f	0.050161894
30	0xbe27614a	-0.16345707
31	0xbf0482d1	-0.5176211
32	0xbe207bbb	-0.156722
33	0x3ef23148	0.47303224
34	0x3fce5520	1.6119728
35	0xbd2a0fe8	-0.041519076
36	0xbd0bfa7b	-0.034174424
37	0xbf16d622	-0.5892049
38	0xbe09aba1	-0.13444377
39	0xbd7ae934	-0.061257556
40	0xbdce101c	-0.10061666
41	0xbcf94be4	-0.030431695
42	0xbe1fcd9d	-0.15605779
43	0xbd85c2b8	-0.0653128
44	0xbf910116	-1.1328456
45	0x3f080320	0.5312977
46	0x3fb1a6c0	1.3879013
47	0x3f16ac16	0.5885633
48	0xbdbedc7c	-0.09319398
49	0xbf1ea4e8	-0.61970377
50	0x3dd3df73	0.10345354
51	0x3d06358a	0.032765903
52	0xbe19d7a3	-0.15023665
53	0x3dc8d60a	0.0980645
54	0x3d36a591	0.04459149
55	0xbe42d073	-0.1902483
56	0xbf10beed	-0.5654133
57	0xbf5046c0	-0.81357956
58	0xbe817b81	-0.25289539
59	0xbf1649f7	-0.5870661
60	0x3da8b6e2	0.08238007
61	0x3f84e952	1.0383704
62	0x3f17b8f1	0.59266573
63	0xbf0b0137	-0.5429873
64	0xbdff5067	-0.124665074
65	0xbefcd347	-0.49379942
66	0xbe54085a	-0.20706311
67	0xbdfbbfa9	-0.12292416
68	0xbfdc0682	-1.7189486
69	0x3dbfee6b	0.093716465
70	0x3e0f505b	0.13995497
71	0x3d9be35b	0.07611724
72	0xbd6b8764	-0.057502165
73	0x3ce6b9fa	0.028164852
74	0x3e3bd98c	0.18344706
75	0xbd6c209d	-0.05764829
76	0xbe4863ff	-0.19569395
77	0x3d875639	0.066082425
78	0xbd3cbe96	-0.046080194
79	0xbe11ca06	-0.14237222
80	0xbdaba49b	-0.083810054
81	0xbde00aaa	-0.10939534
82	0xbe4b6e88	-0.19866383
83	0x3e055902	0.13022235
84	0x3e367e19	0.1782154
85	0xbcb531d6	-0.02211849
86	0xbd190029	-0.03735367
87	0xbd0e8f1a	-0.03480444
88	0x3e0c8973	0.13724308
89	0x3e1f3ae8	0.15549815
90	0x3c9bfd2a	0.019041616
91	0xbd6b01ff	-0.05737495
92	0x3caa6e9e	0.0208047
93	0x3e402db2	0.18767431
94	0x3d461747	0.048362043
95	0x3de998b6	0.114060804
96	0x3d53384f	0.051567372
97	0xbdebee1e	-0.115200266
98	0xbe1af6f9	-0.15133275
99	0xbd513019	-0.05107126
100	0xbe4c18e0	-0.19931364
101	0x3e2e94a8	0.17048895
102	0xbeb731cf	-0.35780188
103	0xbce4b318	-0.02791743
104	0xbe5bbcd6	-0.21458754
105	0x3f61c7ed	0.8819569
106	0xbea07ea5	-0.31346622
107	0x3d95a9cf	0.07307779
108	0xbc58b9dd	-0.013227907
109	0xbec40990	-0.38288546
110	0xbe4d64df	-0.2005801
111	0x3d17ab32	0.0370285
112	0x3c99d2c4	0.018777259
113	0xbe885833	-0.2662979
114	0xbcef4e0c	-0.02921202
115	0x3e25597e	0.1614742
116	0x3d3612fc	0.0444517
117	0x3d57478e	0.052558474
118	0xbf2ba6eb	-0.6705157
119	0xbf1d0e52	-0.61349976
120	0x3f03acc5	0.514355
121	0x3f1d26ce	0.61387336
122	0x3f28640d	0.65777665
123	0xbdeb2c08	-0.11483008
124	0x3efed9d6	0.4977557
125	0x3f1b6f56	0.6071676
126	0xbd3d3363	-0.046191584
127	0xbde64417	-0.11243456
128	0xbbe214af	-0.0068994383
129	0xbd099367	-0.03358784
130	0x3f2668d5	0.6500371
131	0xbeaddb80	-0.33956528
132	0x3f291199	0.66042477
133	0xbe33e64f	-0.17568325
134	0x3f1fb5f6	0.62387025
135	0xbe8fc3e3	-0.28079137
136	0x3ecdb7d0	0.401793
137	0x3c9de510	0.019274265
138	0xbeb2b258	-0.3490169
139	0xbfc954d0	-1.5729008
140	0xbf103730	-0.5633421
141	0x3f00b4c8	0.5027585
142	0x3e9f9599	0.3116882
143	0xbf16c488	-0.5889363
144	0x3e35b73d	0.17745681
145	0x3e415096	0.18878397
146	0xbdacad6c	-0.08431515
147	0x3db7e7be	0.08979748
148	0xbd26dad1	-0.040736023
149	0x3e442480	0.19154549
150	0x3dca09b4	0.09865132
151	0xbf2123fd	-0.6294554
152	0xbdbf749f	-0.093484156
153	0xbe2af326	-0.16694316
154	0xbf5bb7fd	-0.8582762
155	0xbd91cc34	-0.07119027
156	0x3da4ec95	0.08052937
157	0x3d94becd	0.07262955
158	0x3cf1c62b	0.02951344
159	0x3d6d013a	0.057862498
160	0x3dd7819b	0.10522767
161	0x3e2e5d20	0.17027712
162	0xbc7cc8c4	-0.015428726
163	0xbdb4d911	-0.08830465
164	0x3dbc7966	0.092028424
165	0xbdcf77f5	-0.10130302
166	0xbf6c0d15	-0.9220746
167	0x3df33c33	0.118767165
168	0xbefff6a6	-0.49992865
169	0x3ee01271	0.4376407
170	0x3f109a64	0.5648558
171	0x3e0aea98	0.13566053
172	0x3f491a6a	0.7855593
173	0x3f1f6664	0.6226561
174	0xbdc497da	-0.09599276
175	0xbe1e6db8	-0.15471542
176	0xbe3322f4	-0.17493802
177	0xbe25aebb	-0.16179936
178	0x3eef5830	0.4674697
179	0xbea1bf7f	-0.31591412
180	0xbef0ce61	-0.47032455
181	0x3d7cf254	0.06175454
182	0x3ef98bc9	0.4873946
183	0xbeb16414	-0.34646666
184	0x3f331c95	0.6996549
185	0x3e023a67	0.12717591
186	0xbe99ade4	-0.3001548
187	0xbfcf6d14	-1.6205163
188	0xbf0e66dd	-0.55625707
189	0x3f103d91	0.5634394
190	0x3d23074d	0.039801884
191	0xbeec11be	-0.46107286
192	0x3e0720b2	0.13196066
193	0xbe39f1f2	-0.18158701
194	0x3e0bd5fb	0.13655846
195	0xbc5c78d7	-0.013456545
196	0x3d2e2b0b	0.042521518
197	0xbe3711bf	-0.17877863
198	0xbf3a00b8	-0.72657347
199	0xbf374262	-0.7158567
200	0xbf638e84	-0.88889337
201	0xbc6ef336	-0.014584353
202	0xbf8f4dda	-1.1195633
203	0xbe46980c	-0.19393939
204	0xbdeea860	-0.11653209
205	0xbf5fb0d2	-0.8737918
206	0xbde2539b	-0.11051103
207	0x3d4942cc	0.049135968
208	0x3c986b74	0.018605925
209	0xbf55eeb4	-0.8356736
210	0xbdca145f	-0.09867167
211	0x3e1d2f8e	0.15350172
212	0x3da38e6b	0.079861484
213	0xbbd6dd8a	-0.0065571712
214	0xbf7a2ded	-0.9772633
215	0xbd232bc3	-0.039836656
216	0x3d284360	0.04107988
217	0xbec07b98	-0.37594295
218	0x3dcd923e	0.10037659
219	0x3bb96de3	0.0056588515
220	0x3c9df384	0.019281156
221	0xbd9fabea	-0.07796462
222	0xbec2be6a	-0.380359
223	0xbe053ce9	-0.13011517
224	0xbf315b09	-0.69279534
225	0xbf14d0c4	-0.5813105
226	0xbf1c8eee	-0.61155593
227	0xbf40107c	-0.75025153
228	0xbd4217b9	-0.047385905
229	0xbec669f3	-0.38752708
230	0xbf0c004b	-0.5468795
231	0xbf2060cf	-0.6264772
232	0xb8a40386	-7.820786e-05
233	0xbedd700c	-0.43249547
234	0xbee79188	-0.4522822
235	0x3e16d2f8	0.14728916
236	0xbb89d23f	-0.0042059715
237	0x3c1a0c95	0.009402414
238	0xbeed3cee	-0.46335548
239	0x3e328f4d	0.17437477
240	0x3ef52fb1	0.47887948
241	0x3f30cc55	0.69061786
242	0x3f06e94a	0.5269972
243	0x3d6e5a46	0.05819156
244	0x3f471f68	0.777823
245	0x3efe893f	0.49714085
246	0xbe351d22	-0.17686895
247	0xbeb4075b	-0.35161862
248	0x3c85b2e2	0.01632065
249	0xbe85ecc5	-0.26157203
250	0xbc79842f	-0.015229269
251	0xbec2a650	-0.3801751
252	0x3f187afc	0.5956266
253	0xbe455d0b	-0.19273774
254	0x3f22ed57	0.636434
255	0xbf09de3b	-0.5385472

fc3.bias f4 [24]
0	0xbe03cce0	-0.12871122
1	0xbee676d9	-0.4501255
2	0xbfa1fb53	-1.2654823
3	0xbe483386	-0.19550905
4	0xbe43506d	-0.19073649
5	0xbcac67ba	-0.021045554
6	0xbf7bbbb1	-0.9833327
7	0xbdec6e4f	-0.11544477
8	0xbf94f6d3	-1.1637825
9	0xbf1b4dc0	-0.6066551
10	0xbbbeb446	-0.00581983
11	0xbeec7402	-0.46182257
12	0xbf3d6073	-0.73975295
13	0xbf1e566a	-0.6185061
14	0xbef36ae9	-0.47542503
15	0xbf141b89	-0.57854515
16	0xbf4175f3	-0.755706
17	0xbdcd6791	-0.10029519
18	0xbdca03b6	-0.09863989
19	0xbf434026	-0.7626976
20	0xbd69b578	-0.057057828
21	0xbef68668	-0.4814942
22	0xbe34cfa1	-0.17657329
23	0xbee7dec8	-0.45287156

fc4.weight f4 [4, 24]
0	0xbf2a4f7f	-0.6652755
1	0xbf97d7ab	-1.1862692
2	0xbefb9d6c	-0.4914354
3	0xbc605dfc	-0.013694283
4	0xbd9cc8a5	-0.076554574
5	0xbe47da8a	-0.1951696
6	0x3f47ba54	0.7801869
7	0xbdb6353c	-0.088968724
8	0xbf87700e	-1.0581071
9	0xbee2d38f	-0.4430203
10	0xbba369ff	-0.004987001
11	0xbf3d5db0	-0.7397108
12	0xbf290194	-0.66018033
13	0x3e4e1ac7	0.20127402
14	0xbedef46b	-0.4354585
15	0xbee5c461	-0.44876388
16	0xbf499392	-0.787408
17	0xbda4655c	-0.08027145
18	0xbf445517	-0.76692337
19	0xbe3ca0ee	-0.18420765
20	0xbe63f5ec	-0.2226178
21	0xbf2c2eb3	-0.6725876
22	0xbf0bfb6d	-0.5468052
23	0x3c9392d9	0.018014358
24	0xbf0d9ea1	-0.55320174
25	0xbf383ac5	-0.71964675
26	0xbf17cd44	-0.59297585
27	0xbcfaf4ea	-0.030634362
28	0x3f1f0df0	0.6213064
29	0xbe30f77b	-0.17281906
30	0xbe35082b	-0.17678897
31	0xbd8ff766	-0.070296094
32	0xbf2f4062	-0.68457615
33	0xbf0b9486	-0.54523504
34	0xbaf56052	-0.0018720722
35	0xbf2d7e1d	-0.6777056
36	0xbece87b0	-0.40337896
37	0xbc142dec	-0.009044152
38	0xbed344c6	-0.41263407
39	0xbeede95a	-0.46467096
40	0x3f24854d	0.642659
41	0x3db0ac32	0.08626594
42	0xbf30e599	-0.6910034
43	0xbe376b47	-0.17912017
44	0xbe858b44	-0.26082814
45	0xbf149a55	-0.5804799
46	0xbf456c75	-0.7711862
47	0xbecd33c9	-0.4007857
48	0xbb376c20	-0.0027988032
49	0xbf22363b	-0.63364
50	0xbe2caac4	-0.16862017
51	0xbe322007	-0.1739503
52	0xbf91f370	-1.1402416
53	0xbedccc98	-0.43124843
54	0x3e2d2c90	0.1691153
55	0xbe878c94	-0.2647444
56	0xbf192b60	-0.5983181
57	0xbef6b0f8	-0.4818189
58	0xbcbbac2c	-0.022909246
59	0xbee6adb8	-0.45054412
60	0xbec40b87	-0.38290045
61	0x3dc600a2	0.096680894
62	0xbf02ce3c	-0.5109594
63	0xbf10b81b	-0.5653092
64	0x3f2a52d3	0.6653263
65	0xbe14768a	-0.14498344
66	0x3ea88372	0.32912785
67	0xbeeb97e3	-0.46014318
68	0xbe52fb06	-0.2060357
69	0xbee18606	-0.44047564
70	0xbf147507	-0.5799107
71	0xbdf022e4	-0.11725405
72	0x3e5a05cd	0.21291275
73	0x4023c7e4	2.5590754
74	0xbf499afd	-0.7875212
75	0xbd952dba	-0.07284112
76	0xbefe928b	-0.49721178
77	0x3e084102	0.13306049
78	0x3f215aa6	0.63028944
79	0x3dbaa992	0.09114374
80	0xbf536b17	-0.8258528
81	0xbf2022bf	-0.6255302
82	0x3c008afb	0.0078456355
83	0xbefc5793	-0.49285564
84	0xbee6e0ae	-0.45093292
85	0xbeede8f4	-0.46466792
86	0xbed44f53	-0.4146677
87	0xbf33c47d	-0.7022169
88	0x3f5107a3	0.8165228
89	0x3cc437ff	0.023952482
90	0x3e83a63d	0.25712767
91	0x3c4c1ec3	0.012458506
92	0x3e22fe03	0.1591721
93	0xbf0be533	-0.54646605
94	0x3f2766c6	0.65391195
95	0xbcf9d51e	-0.03049713

fc4.bias f4 [4]
0	0xc11d13c5	-9.817327
1	0xc11e41d9	-9.891076
2	0xc11c8d2a	-9.784464
3	0xc11d77f4	-9.841785
