Classics/dqn_model.pth (torch, 9112 bytes, 8 tensors)

fc1.weight f4 [24, 8]
0	0x3f9be629	1.2179614
1	0xc09f126e	-4.9709997
2	0x411b4d2c	9.706341
3	0x40c1a003	6.0507827
4	0xc0959a69	-4.675099
5	0x3f41bb75	0.7567666
6	0xc03a7151	-2.9131663
7	0xc0861a28	-4.190693
8	0xbcf7ce70	-0.030249804
9	0xbc4a8fad	-0.012363357
10	0xbe8eef0a	-0.27916747
11	0x3d8fc3e4	0.07019785
12	0x3d807460	0.06272197
13	0xbee9089e	-0.45514387
14	0xbea65d5c	-0.32493103
15	0xbe6c522a	-0.23078218
16	0x3e4afbed	0.19822665
17	0x3fbfc593	1.498217
18	0xc0549463	-3.3215568
19	0xbf9c8ebc	-1.2231059
20	0xc025c4d7	-2.5901392
21	0xc0068c24	-2.1023035
22	0xc029ecdd	-2.655082
23	0xbf91a4d8	-1.1378431
24	0xbead0347	-0.33791563
25	0xbd831a78	-0.06401533
26	0xbea70471	-0.32620576
27	0xbea1495a	-0.31501275
28	0xbf34c8db	-0.7061898
29	0xbeab0b8b	-0.33407244
30	0xbf341df4	-0.70358205
31	0xbddcb3b0	-0.1077646
32	0xbdb095cb	-0.08622321
33	0xbf1c5722	-0.61070454
34	0xbf7b6952	-0.9820758
35	0xbf67b30f	-0.90507597
36	0x3d971b8a	0.073782995
37	0xbf2dbb51	-0.6786395
38	0xbf85abd5	-1.0443064
39	0xbf5b1315	-0.8557599
40	0x3e5a3159	0.21307887
41	0xbd827c36	-0.063713476
42	0xbeae5918	-0.34052348
43	0x3d36d8ec	0.044640467
44	0xbd767d6a	-0.060178198
45	0x3d39e783	0.045386802
46	0xbdabd9ff	-0.08391189
47	0x3c918eac	0.017768227
48	0xbea4ac6d	-0.321628
49	0xbf308b18	-0.6896224
50	0xbeb74703	-0.35796365
51	0xbf65bbee	-0.8973988
52	0xbeb89b50	-0.36055994
53	0xbe9da54c	-0.30790174
54	0xbf37b26a	-0.71756613
55	0x3d06a1ee	0.032869272
56	0x3ad55783	0.0016276691
57	0xbeabe156	-0.33570355
58	0xbe82ff69	-0.25585487
59	0xbd8dab0b	-0.069173895
60	0xbe50a2de	-0.20374629
61	0xbdfc60b9	-0.12323136
62	0xbe1e0cc5	-0.15434559
63	0x3e046e31	0.1293266
64	0x411be858	9.744225
65	0x41142224	9.258335
66	0x4108c5e6	8.548315
67	0xbf864fa0	-1.049305
68	0xbf20a970	-0.6275854
69	0xc05dc6f1	-3.4652674
70	0xbfa564c3	-1.2921375
71	0xc02e0306	-2.7189345
72	0xc19007f3	-18.003881
73	0x3f45081e	0.7696551
74	0x40033d56	2.0506186
75	0xc05fcbfd	-3.4968255
76	0x40735c1a	3.8024964
77	0xc0a6b209	-5.209233
78	0x41155a28	9.334511
79	0x3e26d42b	0.16291873
80	0xbf4020d9	-0.7505012
81	0xbf168ca3	-0.58808345
82	0xbebad873	-0.36493263
83	0xbf1c4fb3	-0.6105911
84	0xbec31095	-0.3809859
85	0xbf070bb2	-0.5275222
86	0xbeaae758	-0.33379626
87	0xbf15e7a1	-0.5855656
88	0xc1104e60	-9.0191345
89	0x403d5f17	2.9589288
90	0xc10c6d27	-8.7766485
91	0x3f60d309	0.87822014
92	0x3fad9ae1	1.356289
93	0x3f2a51f1	0.6653128
94	0x3e33bad4	0.17551738
95	0xbf11c026	-0.5693382
96	0x3f526ce1	0.82197386
97	0x3fe1e4cf	1.7647952
98	0xbf3b5e12	-0.73190415
99	0xbf28d30e	-0.65947044
100	0xbf111a54	-0.566808
101	0xbf9cdfde	-1.2255819
102	0xbf4ec6dd	-0.8077219
103	0xbfad2738	-1.3527594
104	0x3f5e2922	0.86781514
105	0x40051ad1	2.0797617
106	0xbf35f453	-0.71075934
107	0xbf896e50	-1.073679
108	0xbf166863	-0.5875303
109	0xbfbaf998	-1.460742
110	0xbf5836d4	-0.8445866
111	0xbfbc8a44	-1.4729695
112	0xbf2b728a	-0.6697165
113	0xbeec6bdc	-0.4617604
114	0xbf188bcc	-0.59588313
115	0xbed18c55	-0.40927377
116	0xbe979eda	-0.29613382
117	0xbf0ad48f	-0.5423059
118	0xbedd7d93	-0.43259868
119	0xbec88726	-0.3916561
120	0x3f04c8d2	0.5186893
121	0x3f0dcb50	0.55388355
122	0xbf9d8839	-1.2307197
123	0xbf4e5a60	-0.8060665
124	0xbea876f7	-0.32903263
125	0xbf781ec5	-0.9692195
126	0xbf627f60	-0.8847561
127	0xbeb02f87	-0.3441126
128	0x3f83bd4c	1.0292144
129	0x3f922c7f	1.1419829
130	0xbf992110	-1.1963215
131	0xbfc34b40	-1.525734
132	0xbf874fbf	-1.0571212
133	0xbf6773bb	-0.90410966
134	0xbeb76c81	-0.3582497
135	0xbfb34dbd	-1.4008099
136	0x3f05dcdb	0.52290124
137	0x3f827526	1.0192001
138	0xbf688580	-0.90828705
139	0xbf464cb1	-0.7746077
140	0xbf08c36b	-0.53423184
141	0xbf42acfc	-0.76045203
142	0xbf73250c	-0.94978404
143	0xbf05dce2	-0.52290165
144	0xbf032cae	-0.5124005
145	0x40156fac	2.334941
146	0xbeca43a8	-0.39504743
147	0xbf8595a2	-1.0436289
148	0xc050422e	-3.2540393
149	0xbf4982ec	-0.78715396
150	0xc01cb486	-2.4485183
151	0xc0190509	-2.3909323
152	0x3f86b33f	1.0523452
153	0x3f7a6578	0.9781108
154	0xbf0f8559	-0.5606285
155	0xbf3486b1	-0.7051802
156	0xbf43a4aa	-0.7642313
157	0xbf373cb9	-0.7157703
158	0xbf7c9b81	-0.9867478
159	0xbfa8eabf	-1.3196639
160	0xbed7d20d	-0.42152444
161	0xbee72727	-0.45147058
162	0xbf1b34fa	-0.6062771
163	0xbe736432	-0.2376869
164	0xbe26ab1c	-0.1627621
165	0xbebd2d27	-0.3694851
166	0xbe6c9114	-0.23102218
167	0xbf4ed041	-0.8078652
168	0xbeef95cd	-0.46793976
169	0xbf20f9e6	-0.62881315
170	0xbdb83241	-0.0899396
171	0xbf0f2e91	-0.5593043
172	0xbf8d7d23	-1.1053814
173	0xbf0d3094	-0.5515225
174	0xbea516c0	-0.3224392
175	0xbef3796b	-0.47553572
176	0xbf31f70f	-0.69517606
177	0xbf373a3e	-0.71573246
178	0xbef126a3	-0.4709979
179	0xbf41f53c	-0.7576482
180	0xbf5a35e3	-0.85238475
181	0xbf5a0e68	-0.8517823
182	0xbf20f225	-0.62869483
183	0xbef41631	-0.4767318
184	0xbe8c91db	-0.2745503
185	0xc065ead8	-3.5924587
186	0xbfd7d9fb	-1.6863397
187	0xbfb9341e	-1.446903
188	0xc0087dc8	-2.132677
189	0xbf558e9d	-0.83420736
190	0xc042a5f7	-3.0413797
191	0xbf328052	-0.6972705

fc1.bias f4 [24]
0	0xc17554bb	-15.333186
1	0xbf6f8f91	-0.9357844
2	0xc0711373	-3.766812
3	0xbf23dbe4	-0.640074
4	0xbf4115cb	-0.7542388
5	0xbeb4c433	-0.35305938
6	0xbf1d6029	-0.61474854
7	0xbe8e55be	-0.2779979
8	0xc1274ed3	-10.456744
9	0x3f2241ca	0.63381636
10	0xbf8a1221	-1.0786783
11	0x3fd9fa71	1.7029554
12	0xc008f4b8	-2.1399364
13	0xc018306a	-2.377955
14	0xbf687ad2	-0.9081241
15	0xbf4842b5	-0.78226787
16	0xc0131900	-2.2984009
17	0xbf8bcf27	-1.0922593
18	0xc05efa68	-3.4840336
19	0xbfb017e6	-1.3757293
20	0xbf52c7cd	-0.8233612
21	0xbf439084	-0.7639239
22	0xbf105c18	-0.56390524
23	0xc03eed7e	-2.9832454

fc2.weight f4 [24, 24]
0	0xbf05aba7	-0.52215046
1	0x3cda650b	0.02665951
2	0x3da2e755	0.07954279
3	0x3e2e30f6	0.17010865
4	0x3e6044a2	0.21901181
5	0xbe480b44	-0.19535547
6	0xbd90a98b	-0.07063588
7	0xbe17406a	-0.14770666
8	0xbecd6d08	-0.40122247
9	0xbeff73aa	-0.49892932
10	0xbe519e28	-0.20470488
11	0xbdfc392d	-0.12315593
12	0xbf02d5dd	-0.5110758
13	0xbe5fe2a3	-0.21863799
14	0x3f2bab56	0.6705831
15	0xbe15ca29	-0.14627899
16	0xbdbe5c4f	-0.0929495
17	0xbd50631d	-0.05087577
18	0xbec2c376	-0.3803975
19	0xbf045aed	-0.5170124
20	0x3f2d0a5a	0.6759392
21	0xbf235b5b	-0.6381127
22	0x3ee6e9f3	0.45100364
23	0x3d275965	0.040856738
24	0x3de491c1	0.11160613
25	0x3f17b84f	0.5926561
26	0x3fa10503	1.2579654
27	0x3f1cb0ac	0.6120708
28	0x3e430ece	0.19048616
29	0xbe354644	-0.17702585
30	0x3f2c95ad	0.6741589
31	0x3d8029e5	0.06257991
32	0xbe8cca36	-0.27498025
33	0xc073da5f	-3.8102033
34	0xbf10f6d0	-0.56626606
35	0xc0c96185	-6.2931542
36	0xbeadd436	-0.33950967
37	0xbec0a13b	-0.3762301
38	0x3f3a67df	0.72814745
39	0xbd16249f	-0.03665602
40	0xbe4bc2c7	-0.1989852
41	0xbceee887	-0.029163612
42	0xbea518fc	-0.32245624
43	0xbdcd6b9b	-0.1003029
44	0x3eec9c8c	0.46213186
45	0xbeb2f2b3	-0.3495079
46	0x3e2fec70	0.17180037
47	0xbed439d7	-0.41450378
48	0xbfb24ddc	-1.3930011
49	0x3d302059	0.0429996
50	0xbf502e74	-0.8132088
51	0x3f0de4d5	0.55427295
52	0x3e9cb114	0.3060385
53	0xbc39601c	-0.011314418
54	0xbdc65568	-0.09684259
55	0x3dcae752	0.09907402
56	0x3d7d4d80	0.061841488
57	0xbf95483b	-1.1662668
58	0xbeec984a	-0.46209937
59	0xbff5a6c1	-1.9191514
60	0xbf1e4d97	-0.6183714
61	0xbf0392b7	-0.51395744
62	0x3f3ca8bb	0.7369496
63	0xbd94ab06	-0.07259183
64	0xbf3261ae	-0.696803
65	0x3e3d920d	0.18512745
66	0xbe31c0bc	-0.17358679
67	0xbda01738	-0.078169286
68	0x3f40611c	0.7514818
69	0xbef63a9b	-0.48091587
70	0x3ebc8562	0.36820513
71	0x3e54eb25	0.20792826
72	0xbf200320	-0.6250477
73	0xbd86b9f1	-0.06578434
74	0xbd2af3af	-0.0417363
75	0xbe1500bd	-0.14551063
76	0x3e36afb4	0.17840463
77	0xbe4d873c	-0.20071119
78	0xbdc7ebbb	-0.09761759
79	0xbddcb3b1	-0.10776461
80	0x3d02e1a8	0.031953484
81	0xbefb9345	-0.49135795
82	0x3c9de1dc	0.019272737
83	0xbe94c788	-0.2905848
84	0xbf281813	-0.65661734
85	0xbe2bcce1	-0.16777374
86	0x3e05537f	0.13020132
87	0x3d0ccdc9	0.03437594
88	0xbe1959dd	-0.14975686
89	0xbdc9bdb3	-0.098506354
90	0xbed8812c	-0.4228605
91	0xbe956b98	-0.2918365
92	0xbcb3fb50	-0.021970421
93	0xbf0d22a6	-0.55130994
94	0x3efa0cb5	0.4883782
95	0x3e9ec947	0.31012937
96	0xbf5ec3d4	-0.8701756
97	0x3e4b6f7d	0.19866748
98	0xbef01f95	-0.46899095
99	0xbedb0cd9	-0.4278324
100	0x3e6f16aa	0.2334849
101	0xbb8732e2	-0.0041259388
102	0xbf0ededf	-0.55808824
103	0x3e25dd36	0.16197667
104	0xbe095b87	-0.13413821
105	0xbf4a6ed1	-0.7907534
106	0xbf3c44ca	-0.73542464
107	0xbf71ffdb	-0.9453103
108	0xbf8287e9	-1.0197726
109	0xbeb24955	-0.34821573
110	0x3f203d54	0.6259358
111	0x3d5ba5ed	0.053625036
112	0xbf52b82f	-0.8231229
113	0xbdaff21a	-0.08591099
114	0xbf396290	-0.7241602
115	0xbf0725ec	-0.5279224
116	0xbf42032d	-0.75786096
117	0xbf3c968b	-0.7366721
118	0xbf3b2024	-0.7309592
119	0x3ea9f8bc	0.33197582
120	0x3d0c7c2d	0.03429811
121	0x3f47e1a5	0.7807868
122	0xc025b782	-2.5893254
123	0xbf341ed6	-0.7035955
124	0xbf041620	-0.5159626
125	0x3b0da7e1	0.0021614956
126	0xbf338e86	-0.7013935
127	0xbe4d2abd	-0.20035835
128	0xbf963045	-1.1733481
129	0xbf331da8	-0.69967127
130	0xbf0d384f	-0.55164045
131	0xbf1b4b23	-0.60661525
132	0xbf0235e3	-0.50863475
133	0xbfbf9376	-1.4966877
134	0xbf10c730	-0.56553936
135	0xbf37f020	-0.71850777
136	0xbf3302e3	-0.6992628
137	0xbee9bc27	-0.4565136
138	0xbef18111	-0.47168782
139	0xbf1a5621	-0.6028767
140	0xbf2e806f	-0.68164724
141	0xbee84eb1	-0.45372537
142	0xbf1c95b4	-0.6116593
143	0xbf30fac2	-0.69132626
144	0xbeb7cf65	-0.35900417
145	0x3f17e629	0.5933557
146	0xbf1bbb83	-0.60832995
147	0x3f0be8ab	0.546519
148	0x3ddf52ad	0.10904441
149	0xbdd12d4e	-0.10213719
150	0x3f21c7c2	0.6319543
151	0x3e3fd602	0.18733981
152	0xbfecbebc	-1.8495708
153	0xbf45669d	-0.771097
154	0xbed9cf0c	-0.42540777
155	0xbed5783b	-0.4169329
156	0xbef4d32c	-0.4781736
157	0xbe4b4982	-0.1985226
158	0x3f4da6b2	0.8033248
159	0x3dd0df73	0.101988696
160	0xbed3cfd8	-0.4136951
161	0xbd809dd3	-0.062801026
162	0xbe8762fe	-0.26442713
163	0xbefed547	-0.49772093
164	0x3f02565d	0.5091303
165	0xbed14fd6	-0.40881222
166	0x3f1aff54	0.6054585
167	0x3ea76878	0.3269689
168	0xbfc145aa	-1.5099385
169	0xbed47a7f	-0.41499707
170	0x3ed3ef9f	0.41393754
171	0x3f2c2654	0.67245984
172	0x3e1634e1	0.14668609
173	0x3d734705	0.0593939
174	0xbf42d81b	-0.76111
175	0x3d6eef2e	0.05833357
176	0xbd109dfb	-0.035306912
177	0xc01106bf	-2.2660367
178	0xbe39470d	-0.1809351
179	0xc033ffc2	-2.8124852
180	0xbef68971	-0.48151734
181	0xbd4520bf	-0.048126932
182	0x3f23539c	0.6379945
183	0x3dfaba8e	0.12242614
184	0xbeadb1ff	-0.33924863
185	0xbe137ebb	-0.14403813
186	0xbeec1392	-0.4610868
187	0xbea24e52	-0.3170038
188	0x3eeea16a	0.46607524
189	0xbf2020ff	-0.6255035
190	0x3eda266a	0.42607433
191	0x3e7b5000	0.24542236
192	0xbebc153b	-0.36734948
193	0x3cfc5f49	0.030807154
194	0xbe5d83af	-0.21632265
195	0x3ef86d3c	0.4852084
196	0x3e15ea08	0.14640057
197	0x3d4be08e	0.0497747
198	0x3f23da8d	0.6400536
199	0xbe1cd2c1	-0.15314771
200	0xbdc2a6bd	-0.09504459
201	0xbe903d73	-0.28171882
202	0x3e904e73	0.28184852
203	0xbf9f5a16	-1.2449367
204	0xbec9fa64	-0.39448845
205	0x3e587fab	0.21142451
206	0x3f01cf73	0.5070717
207	0x3e3f3555	0.18672688
208	0xbec4f40e	-0.3846745
209	0xbee1e380	-0.4411888
210	0x3d23dd83	0.040006172
211	0xbf04c9a5	-0.51870185
212	0x3f2ef243	0.6833841
213	0xbeae94a5	-0.34097782
214	0x3f1a6a1e	0.6031817
215	0xbca856d9	-0.020549225
216	0xc10967e2	-8.587862
217	0xbf286047	-0.6577191
218	0xbe99e451	-0.30057004
219	0x3f131a95	0.57462436
220	0xbe757755	-0.23971303
221	0x3cddaf84	0.027061231
222	0xbf020e6e	-0.5080327
223	0x3b180721	0.0023197609
224	0xbf8e2a14	-1.1106591
225	0xc03aa60b	-2.9163845
226	0xbea59096	-0.32336873
227	0xbeb8e43e	-0.36111635
228	0xbe115670	-0.1419313
229	0xbf3e79b6	-0.74404466
230	0x3f0ab8f6	0.5418848
231	0xbeb581fa	-0.35450727
232	0x3e2c46d9	0.16823901
233	0xbf8e00b2	-1.1093962
234	0xbec53139	-0.38514116
235	0xbf2c9ca7	-0.6742653
236	0xbf1b5791	-0.6068049
237	0xbf0c68c7	-0.5484738
238	0x3bd9652b	0.0066343746
239	0x3ea552ee	0.32289833
240	0xbf477850	-0.7791796
241	0x3f3c77b4	0.7362015
242	0x3dc472a6	0.0959218
243	0x3f26f8db	0.65223473
244	0x3cd2075d	0.025638277
245	0xbe4930eb	-0.19647567
246	0x3f06de67	0.5268311
247	0x3da50589	0.08057696
248	0xbd94c77e	-0.072646126
249	0xbf9a83b3	-1.2071441
250	0xbef927af	-0.4866309
251	0xbf4e5638	-0.8060031
252	0xbea81af5	-0.32833067
253	0x3dfcec10	0.12349713
254	0x3f0688bb	0.52552384
255	0xbd828691	-0.06373323

fc2.bias f4 [24]
0	0xbf77b11d	-0.9675463
1	0xc011f7d3	-2.280751
2	0xbf9cbdee	-1.2245462
3	0xbf40801a	-0.7519547
4	0xbf882567	-1.0636414
5	0xc0129ef2	-2.2909513
6	0xbfd25569	-1.6432315
7	0xbfeef1fd	-1.8667599
8	0xbfbc7f5e	-1.4726369
9	0xbfc3a3a4	-1.5284314
10	0xbfbc4b47	-1.4710473
11	0xbfb23b4a	-1.3924344
12	0xc0201a6d	-2.501613
13	0xbf611f32	-0.87938225
14	0xbf512d64	-0.81709886
15	0xbf4b7f1b	-0.7949082
16	0xbf95ad6b	-1.1693548
17	0xbf91f01f	-1.1401404
18	0xc067c525	-3.6214077
19	0xbf0b1b00	-0.54338074
20	0xbfba96e9	-1.4577304
21	0xbe09c264	-0.1345306
22	0x3f8b657c	1.0890346
23	0xbfe5ed01	-1.7962953

fc3.weight f4 [24, 24]
0	0xbef1ed2b	-0.47251257
1	0xbf6e4322	-0.93071187
2	0xbe869084	-0.26282132
3	0xbe99ed3e	-0.30063814
4	0xbe820e45	-0.25401512
5	0x3f3fdb23	0.7494375
6	0xbee52bae	-0.44759887
7	0xbf0c1d16	-0.5473188
8	0xbe9c8a3a	-0.30574208
9	0xbeaae07c	-0.33374393
10	0xbeb452df	-0.35219476
11	0xbf171931	-0.59022814
12	0x3af90cf4	0.0019001053
13	0xbeabd879	-0.33563593
14	0xbcb97548	-0.022638932
15	0x3f3d939f	0.74053377
16	0xbeed96e4	-0.46404183
17	0xbec53020	-0.3851328
18	0x3e9df710	0.30852556
19	0xbd6fa4fe	-0.05850696
20	0x3e28aa06	0.16471109
21	0xbbf8f9c4	-0.0075981338
22	0xbe40aa6d	-0.18815012
23	0x3f2a5bb1	0.6654616
24	0xbf208103	-0.62696856
25	0xbf0b838d	-0.54497606
26	0xbf10a563	-0.5650236
27	0xbf30d27f	-0.6907119
28	0xbf280c01	-0.65643317
29	0xbddac67a	-0.10682388
30	0xbf28ee13	-0.6598827
31	0xbec2f788	-0.38079476
32	0xbec5d469	-0.3863862
33	0xbf5811fb	-0.84402436
34	0xbee1c953	-0.4409891
35	0xbefbb835	-0.49163976
36	0x3e06faa1	0.13181545
37	0xbf3b960a	-0.73275816
38	0xbf054ac9	-0.5206724
39	0x3d457639	0.04820845
40	0xbed3c9aa	-0.41364795
41	0xbf3146a1	-0.69248396
42	0x3ede4211	0.4340978
43	0x3ee49d15	0.44651094
44	0xbdcd8a6f	-0.1003617
45	0xbdec255f	-0.115305655
46	0xbf3b10e9	-0.7307268
47	0xbe0c8874	-0.13723928
48	0xbea0bcdd	-0.3139409
49	0xbe12eafa	-0.14347449
50	0x3e181aac	0.14853925
51	0xbe773358	-0.2414068
52	0xbe945721	-0.28972724
53	0x3e05f9a1	0.13083507
54	0xbb160a2c	-0.0022894247
55	0xbdceb6fa	-0.10093494
56	0xbdf51cee	-0.119684085
57	0xbee0a925	-0.43879047
58	0xbe86749f	-0.2626085
59	0xbec457af	-0.38348147
60	0xbe05da78	-0.1307162
61	0xbedc27aa	-0.4299901
62	0xbd540145	-0.051759023
63	0x3de0d76a	0.10978587
64	0xbe43cb5b	-0.19120543
65	0xbe9dbb7c	-0.30807102
66	0x3f30ef50	0.6911516
67	0x3e88a6eb	0.26689848
68	0x3df55f89	0.119811125
69	0xbd53e2c1	-0.05172992
70	0xbdfbae8b	-0.12289151
71	0x3d3a186f	0.045433458
72	0xbece2c7a	-0.40268308
73	0x3efaf96d	0.49018422
74	0x3d52e883	0.05149127
75	0xbf071413	-0.52765006
76	0x3e9db6de	0.3080358
77	0x3efa0e00	0.48838806
78	0xbef91e6a	-0.48656017
79	0xbf6e435a	-0.9307152
80	0x3dc3983e	0.09550522
81	0xbf87a08b	-1.0595869
82	0xbd1add85	-0.037808914
83	0x3fc77e71	1.5585462
84	0xc00a66c8	-2.1625233
85	0x3dfa691c	0.12227079
86	0xbe229405	-0.15876777
87	0x3eebeff9	0.46081522
88	0xbefd2558	-0.49442554
89	0xbeac4b14	-0.3365103
90	0xc039dd5d	-2.904136
91	0x3ea49466	0.3214447
92	0x404fa7fe	3.2446284
93	0x3e05654a	0.1302692
94	0xbe2b9a82	-0.16758159
95	0xbf834e42	-1.0258257
96	0xbe9d7445	-0.3075277
97	0xbf37872a	-0.7169062
98	0xbededd9b	-0.43528447
99	0xbf1801ae	-0.59377563
100	0xbde70fcb	-0.11282309
101	0xbdc134e4	-0.09433916
102	0xbeb0e1ff	-0.3454742
103	0xbee38bc7	-0.4444258
104	0xbe23c287	-0.15992175
105	0xbfb6458f	-1.4239978
106	0xbe860315	-0.26174226
107	0xbf16eedb	-0.58958215
108	0x3bca74c1	0.006178469
109	0x3d85da90	0.06535828
110	0xbd9aa1d2	-0.07550396
111	0xbd3a1355	-0.045428593
112	0xbe53f581	-0.20699121
113	0xbeb0cf3a	-0.345331
114	0x3ec30adb	0.3809422
115	0x3f2eb86d	0.6825016
116	0xbd9e4009	-0.077270575
117	0x3db9fe4b	0.09081706
118	0xbd30f678	-0.0432038
119	0x3ed391f5	0.41322294
120	0xbe888c42	-0.26669508
121	0xbf4dfba6	-0.8046211
122	0xbf8c449e	-1.095844
123	0xbe44642b	-0.19178836
124	0xbf9ee9f7	-1.241515
125	0x3ee08bd7	0.4385669
126	0xbea45b8e	-0.321011
127	0xbf0db3e9	-0.55352646
128	0xbe0b0c40	-0.13578892
129	0xbeb02447	-0.34402677
130	0xbe02dc1a	-0.12779275
131	0xbed08aae	-0.40730804
132	0xbdf6b9be	-0.12047146
133	0xbe155160	-0.14581823
134	0xbcab44fb	-0.020906916
135	0x3ecea248	0.40358186
136	0xbe91a185	-0.28443542
137	0xbe3d35c5	-0.18477543
138	0x3e9bdb40	0.30440712
139	0x3e598a60	0.21244192
140	0x3f1f62af	0.62259954
141	0x3dcd4e97	0.100247554
142	0xbf75f79a	-0.96080935
143	0x3f1b7fa3	0.60741633
144	0xbf93da45	-1.1550986
145	0xbdfcf4d8	-0.12351388
146	0xbe166856	-0.14688239
147	0xbdcc19c3	-0.09965851
148	0xbced1810	-0.028942138
149	0x3d19dc41	0.037563566
150	0x3c2ed8db	0.01067182
151	0x3c8bc4b8	0.017061576
152	0x3df01141	0.11722041
153	0xbdee6ac4	-0.11641458
154	0xbe43aa90	-0.19108033
155	0x3cf694bb	0.030100217
156	0xbd59947b	-0.053120118
157	0xbd71ccb3	-0.059033107
158	0x3e0465c8	0.12929451
159	0xbdbd20d5	-0.09234778
160	0xbceb7dac	-0.028746448
161	0xbe4b9a63	-0.19883113
162	0xbd596eec	-0.0530843
163	0xbb14d2f5	-0.0022708748
164	0xbe359547	-0.17732726
165	0xbdb44ddb	-0.08803912
166	0x3bf868a2	0.0075808326
167	0xbd616527	-0.055028107
168	0xbfbf07f6	-1.4924304
169	0xbe501e82	-0.20324138
170	0xbfd5bf9f	-1.6699103
171	0xbfc67128	-1.5503283
172	0xbfcbe5d9	-1.5929519
173	0xbe15306d	-0.14569254
174	0xbfdfc911	-1.7483236
175	0xbfad8d51	-1.3558751
176	0xbd7da341	-0.06192327
177	0xbd133ff0	-0.035949647
178	0xbfdcea3d	-1.7258984
179	0xbfd17dcc	-1.6366515
180	0x3e0dc400	0.138443
181	0xbe4216ac	-0.18953961
182	0xbe12411e	-0.14282653
183	0xbce408ce	-0.02783623
184	0xbfc2de5d	-1.522411
185	0xbfb79bfd	-1.4344479
186	0xbe02aa6b	-0.12760322
187	0xbd30c217	-0.04315385
188	0x3df517fa	0.11967464
189	0xbd8d405d	-0.06897042
190	0xbfb587da	-1.4182084
191	0xbe3f86cd	-0.18703766
192	0xbef7a5d7	-0.48368713
193	0xbef2a774	-0.47393382
194	0xbe868f32	-0.26281124
195	0xbf2938e2	-0.6610242
196	0xbe57fbe6	-0.21092185
197	0x3eef6f8e	0.46764797
198	0xbefccead	-0.4937643
199	0xbe8244b3	-0.25443038
200	0xbe298fc8	-0.16558754
201	0xbe6ce955	-0.23135884
202	0xbe8b0b12	-0.27156883
203	0xbef85bea	-0.48507625
204	0xbe3de525	-0.18544443
205	0xbee1a6a7	-0.44072458
206	0xbeaaa8f2	-0.3333202
207	0x3f49bbe7	0.7880234
208	0xbe818925	-0.25299945
209	0xbe40c991	-0.18826891
210	0x3ef20f5c	0.47277343
211	0x3de1a472	0.110176936
212	0x3f059150	0.52174854
213	0xbc18bd4f	-0.009322478
214	0xbebe5e80	-0.37181473
215	0x3f096166	0.53664243
216	0xbfd5febf	-1.6718367
217	0xbfd14586	-1.6349342
218	0xbf78674f	-0.97032636
219	0xbfc5756e	-1.5426462
220	0xbfbc4314	-1.4707971
221	0xbc995125	-0.01871545
222	0xbfbe8521	-1.4884378
223	0xbfbfffc8	-1.4999933
224	0xbfb9b81d	-1.4509312
225	0xbf898b7c	-1.0745692
226	0xbfb94c58	-1.4476423
227	0xbfd8b13a	-1.6929085
228	0x3d729a00	0.059228897
229	0xbfc8723e	-1.5659864
230	0xbe27e7b3	-0.1639698
231	0xbe0288cc	-0.12747496
232	0xbfbbc3ec	-1.4669166
233	0xbfd3f464	-1.6558957
234	0x3d18b6cd	0.037283707
235	0x3e07627a	0.1322116
236	0xbf23a3d2	-0.63921845
237	0x3d3d451a	0.04620848
238	0xbfbf718c	-1.4956527
239	0xbcb0455f	-0.021517454
240	0xbf6d11ef	-0.9260549
241	0xbef41304	-0.47670758
242	0xbf2ef408	-0.6834111
243	0xbe505c5c	-0.20347732
244	0xbf42e3f3	-0.7612907
245	0xbed7b82f	-0.42132708
246	0xbf332a7d	-0.69986707
247	0xbf447871	-0.7674628
248	0xbee2883c	-0.44244564
249	0x3e11fb48	0.14256012
250	0x3f02198d	0.5082024
251	0xbf4aaae3	-0.79167
252	0x3e4c1d3f	0.19933031
253	0xbf1042b6	-0.5635179
254	0xbf0af3ae	-0.54278076
255	0x3f29a4fd	0.6626738

fc3.bias f4 [24]
0	0xbf8628c4	-1.0481191
1	0xc005547a	-2.083281
2	0xbf2ffe63	-0.6874754
3	0xbef33548	-0.47501588
4	0xbed978ba	-0.4247492
5	0xbfe0e1f8	-1.756896
6	0xbfacc03f	-1.3496169
7	0xbfd511f1	-1.66461
8	0xbf4e29dd	-0.8053263
9	0xbf9ea67a	-1.2394555
10	0xbf75e6eb	-0.9605548
11	0xbf36ffb5	-0.7148393
12	0xbf33143c	-0.6995275
13	0xbf03fdeb	-0.51559323
14	0xbf3abafc	-0.72941566
15	0xbff75ff4	-1.9326158
16	0xbf4f2f66	-0.809317
17	0xbfa9ae08	-1.3256235
18	0xbf53630d	-0.82573014
19	0xbf78a442	-0.9712564
20	0xbf1595b0	-0.5843153
21	0xbf21a969	-0.63149124
22	0xbf42c134	-0.76076055
23	0xbef6f1b8	-0.48231292

fc4.weight f4 [4, 24]
0	0x3e8a680f	0.27032515
1	0x3eee31d1	0.46522382
2	0xbd243cf9	-0.04009721
3	0xbf98ce67	-1.1937989
4	0x3f59fbb5	0.851497
5	0xbffddeff	-1.9833678
6	0xbdc8e57d	-0.098093964
7	0x3da97a93	0.08275332
8	0x3e9521a1	0.2912722
9	0x3ebd74c6	0.37003154
10	0xbf4b18ff	-0.79335016
11	0x3bed3046	0.0072384207
12	0xbf32307c	-0.6960523
13	0xbf3290ae	-0.69752014
14	0xbed45fcb	-0.41479334
15	0xbe8e916c	-0.27845323
16	0xbf459fdc	-0.7719705
17	0xc0c04cac	-6.0093594
18	0x3ecff281	0.40614703
19	0xbe8cf1e9	-0.27528313
20	0x3e5d20e7	0.21594582
21	0x3fb4e04e	1.4130952
22	0xbe373833	-0.17892532
23	0xbf20d45a	-0.6282402
24	0x3f222f27	0.633532
25	0xbe829280	-0.25502396
26	0x3e9caa64	0.30598748
27	0xbf91737e	-1.136337
28	0x3f092664	0.53574204
29	0x3f98f09c	1.1948428
30	0x3d541dec	0.05178635
31	0xbd2c9e88	-0.042143375
32	0x3e55386f	0.20822309
33	0xbec40b5f	-0.38289925
34	0x3eac9be8	0.33712697
35	0xbeb79c1d	-0.35861292
36	0xbf0959ce	-0.53652656
37	0xbede4310	-0.4341054
38	0xbf20ba27	-0.62784046
39	0xbf8389ab	-1.0276388
40	0xbf25a1d2	-0.64700043
41	0xbf4d5674	-0.8021004
42	0x3f198149	0.599629
43	0xbbc02817	-0.005864154
44	0xbf20b4b7	-0.6277575
45	0x3f03bc35	0.51459056
46	0x3f0ba327	0.54545826
47	0xbed24ed9	-0.4107578
48	0x3e7463af	0.23866151
49	0xbd9ffb0c	-0.07811555
50	0x3d30a46b	0.04312555
51	0xc061327d	-3.5187066
52	0x3daf4f7e	0.08560084
53	0x3eb638f7	0.35590336
54	0x3f94d54e	1.1627595
55	0xbfb43c49	-1.4080898
56	0x3eb760c4	0.35816014
57	0xbfcf177c	-1.6179042
58	0xbf1c63e7	-0.6108994
59	0xbf710e48	-0.94162416
60	0x3ec2cfec	0.38049257
61	0xbf44be7e	-0.7685317
62	0xbefa8991	-0.4893308
63	0x3df16781	0.1178732
64	0xbee3d228	-0.44496274
65	0xbff62284	-1.9229283
66	0xbea3d011	-0.3199468
67	0x3e33bd49	0.17552675
68	0xbea18210	-0.31544542
69	0x3ea6df17	0.3259208
70	0xbe3e9e7d	-0.18615146
71	0xbf108e40	-0.56467056
72	0x3eb8b4e2	0.36075503
73	0x3f179a27	0.5921959
74	0xbe357e6a	-0.17724004
75	0xbf2e28c9	-0.68030983
76	0xbba738fa	-0.0051032277
77	0xbfca0f2d	-1.5785881
78	0x3c8d53fc	0.017251961
79	0x3b13a4da	0.002252868
80	0x3e53e4bd	0.20692725
81	0x3f1d3762	0.6141263
82	0x3ea788f4	0.32721674
83	0xbf2818f9	-0.65663105
84	0xbf353d42	-0.70796597
85	0xbeeac7b8	-0.45855498
86	0xbf3e6b3f	-0.74382395
87	0xbe2773ee	-0.16352817
88	0xbee2918e	-0.44251674
89	0x3e8aef4f	0.27135703
90	0xbf5b05bb	-0.8555562
91	0x3e96ea1a	0.2947548
92	0x3ebc3a2a	0.36763126
93	0xbd3d574a	-0.046225823
94	0xbef95a9f	-0.4870195
95	0xbf1fbbc0	-0.6239586

fc4.bias f4 [4]
0	0xc22772d1	-41.862125
1	0xc229643e	-42.347893
2	0xc2287be9	-42.121006
3	0xc2262207	-41.53323
