Classics/dqn_model.pth (torch, 6236 bytes, 6 tensors)

fc1.weight f4 [24, 8]
0	0xbefffb84	-0.4999658
1	0xbea89584	-0.3292657
2	0xbe7131ab	-0.23554103
3	0xbeb8a4ca	-0.36063224
4	0xbf582e54	-0.8444569
5	0xbdf6466a	-0.12025149
6	0x3de41415	0.11136643
7	0xbe424326	-0.18970928
8	0xbe8afc48	-0.271456
9	0xbde092cf	-0.109655015
10	0xb8b0dd76	-8.433584e-05
11	0xbeb174bc	-0.34659374
12	0xbee7b831	-0.45257714
13	0x3ea09d50	0.3137002
14	0x3e839230	0.2569747
15	0xbf334c69	-0.7003847
16	0x3dff716b	0.12472805
17	0xbec644ff	-0.38724515
18	0xbf1efb53	-0.6210224
19	0xbe1ba201	-0.15198518
20	0xbec51e20	-0.38499546
21	0xbe31c4f3	-0.17360286
22	0x3e1f313f	0.1554613
23	0xbea09576	-0.3136403
24	0xbe9e0a61	-0.30867293
25	0xbe436dac	-0.19084805
26	0xbea3833f	-0.3193607
27	0xbf6934e3	-0.91096324
28	0xbf8d0e83	-1.1020054
29	0x3ea82d1b	0.32846913
30	0xbef854e3	-0.48502263
31	0xbe4108e6	-0.1885105
32	0xbd10d66d	-0.035360742
33	0xbe92af59	-0.28649405
34	0xbe6e893e	-0.23294541
35	0xbeb813ed	-0.35952702
36	0xbf2b0b2e	-0.66813934
37	0x3dd47373	0.10373583
38	0xbd748813	-0.059700083
39	0xbf1feb31	-0.6246825
40	0xbf5eab7e	-0.86980426
41	0xbdc45b2f	-0.095877044
42	0x3f196496	0.59919107
43	0xbe183439	-0.14863671
44	0xbf339fac	-0.70165515
45	0x3e92c0b1	0.28662637
46	0xbeca5b2f	-0.39522693
47	0xbe6ccefd	-0.23125835
48	0xbebf47a0	-0.37359333
49	0xbebb6771	-0.36602357
50	0xbde426bd	-0.11140201
51	0xbe395910	-0.18100381
52	0xbf4c61a2	-0.79836476
53	0x3e95a6f1	0.2922893
54	0x3dcf448a	0.10120495
55	0xbf337450	-0.70099354
56	0xbda62a82	-0.081135765
57	0xbf2ae36c	-0.6675327
58	0xbedb31db	-0.42811474
59	0xbf5f86c2	-0.87315
60	0xbe897a2a	-0.26851016
61	0x3d0fc26f	0.035097536
62	0xbe096b1a	-0.13419762
63	0xbf6b61aa	-0.919459
64	0xbe872a9e	-0.26399702
65	0x3d8df566	0.06931572
66	0x3f0dbf9a	0.55370486
67	0xbee7ec38	-0.45297408
68	0xbf598f9a	-0.84984744
69	0x3dc1d521	0.09464479
70	0xbe9b0834	-0.30279696
71	0xbf1ffa91	-0.6249171
72	0xbe45c935	-0.19315036
73	0xbf60846d	-0.87702066
74	0xbf556c8b	-0.8336875
75	0x3ea33678	0.31877494
76	0xbeb38d03	-0.3506852
77	0xbfa3b161	-1.2788507
78	0xbe8d5896	-0.27606648
79	0xbf7c53dd	-0.98565465
80	0xbef9889f	-0.48737046
81	0xbf16c3cd	-0.5889252
82	0xbf0a67c9	-0.54064614
83	0xbf3db76a	-0.7410799
84	0xbf06d5a8	-0.52669764
85	0xbe99d6ac	-0.30046594
86	0xbe9e0218	-0.30860972
87	0xbecf3bc2	-0.4047528
88	0x3db22901	0.08699227
89	0xbe4d6b09	-0.20060362
90	0xbeab01d3	-0.3339983
91	0xbeac8585	-0.33695617
92	0xbdcda387	-0.10040956
93	0x3e499e77	0.19689356
94	0x3cfd1ad8	0.03089659
95	0xbddac7fc	-0.10682675
96	0xbf4a1823	-0.7894308
97	0xbe34cc37	-0.17656027
98	0xbf3fecb5	-0.7497056
99	0xbf3814fa	-0.7190701
100	0xbea32760	-0.31865978
101	0xbe3607c9	-0.17776407
102	0xbe89c5f6	-0.26908845
103	0xbe7a7fdf	-0.24462841
104	0xbf495ae1	-0.78654295
105	0xbecd22cc	-0.4006561
106	0xbef7d3aa	-0.48403674
107	0x3d330f8f	0.04371601
108	0xbefc2465	-0.49246517
109	0x3dcca426	0.09992246
110	0xbd151364	-0.036395445
111	0x3cbbcbe4	0.022924371
112	0xbd91a41b	-0.07111379
113	0xbd51ef63	-0.051253688
114	0xbeb9026b	-0.36134657
115	0x3db117ff	0.08647155
116	0xbf2d19ad	-0.67617303
117	0xbe7e65d6	-0.24843535
118	0x3dbae491	0.09125627
119	0xbe069d06	-0.13145837
120	0x3f70f603	0.94125384
121	0x3f1b0339	0.6055179
122	0x3f755c1e	0.95843685
123	0x3f8dd08f	1.1079272
124	0x3ffd9bce	1.9813173
125	0x3fe80ea6	1.812947
126	0x407b1bdd	3.9235756
127	0x3f590a1c	0.8478105
128	0xbf11445c	-0.56744933
129	0xbe57f32f	-0.21088861
130	0x3e875867	0.26434633
131	0xbe8dbc02	-0.276825
132	0x3d76d0ef	0.06025785
133	0xbd172854	-0.036903694
134	0xbf0da52f	-0.55330175
135	0xbd8806ff	-0.066419594
136	0xbe3b5e03	-0.18297581
137	0xbd0bd51a	-0.034138776
138	0xbd1a8d03	-0.037732136
139	0xbeabfb4c	-0.33590162
140	0xbe5453f9	-0.20735158
141	0xbe7eed2c	-0.24895161
142	0x3e104c10	0.14091516
143	0xbe770b69	-0.24125446
144	0xbe82314f	-0.25428244
145	0xbf2febda	-0.68719256
146	0xbf4ff217	-0.81228775
147	0xbf1d08f7	-0.61341804
148	0xbf23311f	-0.6374683
149	0x3e8efbc3	0.27926454
150	0xbe15d7ca	-0.14633098
151	0xbf069147	-0.52565426
152	0xbe606941	-0.21915151
153	0xbe8635a8	-0.2621281
154	0xbf270b76	-0.65251863
155	0xbc76b11f	-0.015056877
156	0xbeb05c8c	-0.34445608
157	0xbd64286f	-0.055702623
158	0xbe59a390	-0.212538
159	0xbe98c454	-0.29837286
160	0xbf418eea	-0.75608695
161	0xbeaa47c5	-0.3325788
162	0xbef1cb71	-0.47225526
163	0x3f5dd4f0	0.8665304
164	0xbf72c542	-0.9483224
165	0xbd7cbef7	-0.061705556
166	0xbe876c42	-0.26449782
167	0xbeae8fb4	-0.34094012
168	0xbe23d741	-0.16000082
169	0xbf12ea55	-0.5738881
170	0xbe65c984	-0.22440153
171	0xbe108bdf	-0.14115857
172	0xbe8be221	-0.2732096
173	0x3dfc8780	0.12330532
174	0x3e445acc	0.19175261
175	0xbddcf967	-0.10789757
176	0xbf940666	-1.1564453
177	0xbf6ec778	-0.93273115
178	0x3d4648b0	0.048409164
179	0xbf0e32fc	-0.55546546
180	0xbdd3453b	-0.10315939
181	0xbf99b3bf	-1.2007979
182	0xbfd713d7	-1.680293
183	0xbec9c449	-0.39407566
184	0x3e06e17b	0.13171951
185	0xbeccbcfa	-0.39987928
186	0x3e8aa642	0.2707997
187	0xbccbb838	-0.024868116
188	0xbf7394d1	-0.9514895
189	0xbe9b94bd	-0.30386916
190	0xbe8c75e3	-0.2743369
191	0xbe7cf3b1	-0.24702336

fc1.bias f4 [24]
0	0xbf0b51bf	-0.5442161
1	0xbf543b85	-0.8290332
2	0xbef7351f	-0.48282716
3	0xbf084edf	-0.5324535
4	0xbf0b9445	-0.54523116
5	0xbf3b49c8	-0.73159456
6	0xbf021e3b	-0.5082738
7	0xbeaef0a6	-0.34167975
8	0xbef1e3c6	-0.4724409
9	0xbfb73598	-1.431323
10	0xbf16a7db	-0.5884988
11	0xbeea63b0	-0.4577918
12	0xbf188740	-0.59581375
13	0xbe31039c	-0.17286533
14	0xbf165191	-0.5871821
15	0x404b6dbe	3.1785731
16	0xbec01bdd	-0.37521258
17	0xbe04178f	-0.12899612
18	0xbef4c2f5	-0.4780499
19	0xbf2a2c84	-0.66474175
20	0xbf2584b4	-0.64655614
21	0xbf1f14cd	-0.62141114
22	0xbf55c443	-0.83502597
23	0xbf215784	-0.63024163

fc2.weight f4 [24, 24]
0	0xbed339fb	-0.41255173
1	0xbcae3891	-0.021267207
2	0xbe8e09b0	-0.27741766
3	0x3e2b4467	0.16725312
4	0x3dcabf81	0.09899808
5	0xbde9b81b	-0.114120685
6	0x3ea2f12b	0.31824622
7	0x3d339645	0.04384448
8	0x3f28e187	0.6596913
9	0xbd85b2c9	-0.06528241
10	0x3f087ff5	0.53320247
11	0xbcdd5892	-0.027019773
12	0xbf407f2e	-0.7519406
13	0xbf1d505d	-0.6145075
14	0x3d9f9edd	0.07793973
15	0xbec389be	-0.38191026
16	0xbf3b2cbe	-0.73115146
17	0x3e047ef9	0.12939061
18	0xbe6d4c16	-0.23173556
19	0xbe080c1c	-0.1328587
20	0x3e387ae3	0.18015628
21	0x3f1cb128	0.6120782
22	0xbe9aeb77	-0.3025777
23	0x3c811cce	0.015760805
24	0x3f2079a0	0.62685585
25	0x3ed69f62	0.41918474
26	0x3f0d4404	0.5518191
27	0xbe10a3ad	-0.14124937
28	0x3eef9050	0.4678979
29	0x3dce9955	0.100878395
30	0xbecc27d7	-0.39874145
31	0xbf3d9271	-0.74051577
32	0x3f0f77be	0.5604209
33	0x3dea7b64	0.11449316
34	0xbf3cd1d9	-0.737577
35	0x3d84b493	0.06479754
36	0xbedd08ff	-0.43170926
37	0x3f2e36b7	0.6805224
38	0x3dd32c75	0.10311214
39	0xbefd2d2d	-0.4944853
40	0xbf1d6545	-0.6148265
41	0x3da5d4bc	0.080972165
42	0xbed88140	-0.4228611
43	0xbdcb2a15	-0.09920136
44	0xbe347efa	-0.17626563
45	0x3dbbc091	0.091675885
46	0xbf19fbc6	-0.601498
47	0xbecf6812	-0.40509087
48	0xbe32b184	-0.1745053
49	0x3ef5f29d	0.48036662
50	0xbdcb5e57	-0.09930103
51	0xbf4cbd9e	-0.7997683
52	0x3f09b3bc	0.5378988
53	0x3f3e9ba7	0.74456257
54	0xbd2104b5	-0.03931113
55	0xbebfccc3	-0.37460908
56	0x3f3bbaa1	0.7333165
57	0x3fa736b5	1.306357
58	0xbee58ec3	-0.4483548
59	0x3d58eae1	0.052958373
60	0xbf1c45e6	-0.61044157
61	0xbee73ce2	-0.45163637
62	0x3ed40504	0.41410077
63	0xc04ff837	-3.2495248
64	0xbef01ce5	-0.46897045
65	0x3d993868	0.07481462
66	0xbe125672	-0.14290789
67	0x3ee21892	0.4415937
68	0xbf21561e	-0.6302203
69	0x3eac019b	0.33594975
70	0xbe4d1a2d	-0.20029517
71	0xbed6a668	-0.41923833
72	0xbece0381	-0.40237048
73	0xbedcee0c	-0.43150365
74	0xbf3c7e5b	-0.73630303
75	0x3e32c47d	0.17457767
76	0xbee1edb6	-0.44126672
77	0xbe4e8600	-0.20168304
78	0xbee9f945	-0.4569799
79	0xbf0c8daa	-0.5490366
80	0xbf1b9fb2	-0.6079055
81	0xbd1821cb	-0.037141602
82	0xbed478bf	-0.41498372
83	0xbee0adc8	-0.43882585
84	0xbf015244	-0.5051615
85	0xbf0e78dd	-0.5565317
86	0xbf332388	-0.6997609
87	0xbf1728cc	-0.59046626
88	0xbf2df636	-0.67953813
89	0xbdfabf10	-0.122434735
90	0xbee480fd	-0.4462966
91	0xbedbaac1	-0.42903712
92	0xbe48fe54	-0.19628268
93	0xbd122de0	-0.03568828
94	0xbef0943b	-0.4698809
95	0xbf4deb71	-0.8043738
96	0x3c49269b	0.012277271
97	0x3dfc0d7b	0.12307259
98	0xbe14dbfa	-0.1453704
99	0xbdb745df	-0.08948874
100	0xbe1ead65	-0.15495832
101	0xbd54db9b	-0.051967245
102	0x3dafb8ba	0.08580156
103	0x3d0f7b94	0.035029963
104	0xbdbd29b6	-0.09236471
105	0x3e47a467	0.19496308
106	0xbd7b2a51	-0.061319653
107	0x3d917076	0.07101528
108	0xbd48c380	-0.04901457
109	0xbd4ba266	-0.049715422
110	0xbd8185b3	-0.06324329
111	0xbf94b798	-1.1618528
112	0xbde402d5	-0.11133353
113	0x3d87609f	0.06610226
114	0x3e1f9dee	0.15587589
115	0x3d18d7ec	0.037315294
116	0xbe22c873	-0.15896778
117	0x3d988465	0.07447127
118	0xbe0ed12d	-0.13946982
119	0x3d116a5a	0.035501815
120	0xbe2df5f1	-0.1698835
121	0x3f43af08	0.7643895
122	0xbef0b2b1	-0.4701133
123	0x3de6d088	0.11270243
124	0x3ed2fc57	0.41208145
125	0x3bbf298a	0.0058338093
126	0x3ef89896	0.48553914
127	0xbe69bd1a	-0.22826043
128	0x3edb39e2	0.428176
129	0x3dcdded7	0.10052269
130	0x3f3bb8fd	0.73329145
131	0xbe687436	-0.22700581
132	0xbf332df1	-0.69991976
133	0xbf2d0961	-0.67592436
134	0xbd9826d5	-0.074292816
135	0xbeb4e972	-0.35334355
136	0xbf539f33	-0.82664794
137	0x3e383c04	0.17991644
138	0xbcd69c19	-0.02619748
139	0x3c988f7b	0.018623104
140	0xbde5d436	-0.11222117
141	0x3dfc7f34	0.123289496
142	0xbe6b9272	-0.23005083
143	0x3ab07169	0.0013461533
144	0xbf4138cd	-0.75477296
145	0xbf0a0bdf	-0.53924364
146	0xbed7192d	-0.42011395
147	0x3c99b9f7	0.018765433
148	0xbf1c1b0b	-0.60978764
149	0x3d8ac446	0.067757174
150	0xbe28d0c4	-0.16485888
151	0xbf352de6	-0.7077316
152	0xbf10135c	-0.5627954
153	0xbc272171	-0.010200844
154	0xbf127b0c	-0.57219005
155	0xba86de60	-0.0010289662
156	0xbdbc805e	-0.092041716
157	0xbf0711c6	-0.52761495
158	0xbde216b7	-0.11039489
159	0xbf070593	-0.5274288
160	0xbf1b1129	-0.6057306
161	0x3e081708	0.13290036
162	0xbee1347c	-0.43985355
163	0xbe0da421	-0.13832141
164	0x3e2091b6	0.15680584
165	0x3c923fca	0.017852683
166	0xbf3e088e	-0.74231803
167	0xbe32b456	-0.17451605
168	0x3e090895	0.1338218
169	0x3f433ed5	0.7626775
170	0xbed653a9	-0.41860703
171	0xbf2f324c	-0.6843612
172	0x3f0a8624	0.5411093
173	0xbfb7f08e	-1.4370286
174	0x3eff63d6	0.49880856
175	0x3d80ddfe	0.06292342
176	0x3f1c49cd	0.6105011
177	0x3d7e4c2b	0.06208436
178	0x3f05f8ee	0.5233296
179	0xbe9f34fc	-0.3109511
180	0xbdfbea31	-0.12300528
181	0x3d8e7e06	0.06957631
182	0x3e142d46	0.14470395
183	0xbe8dca81	-0.2769356
184	0xbec06ed9	-0.3758457
185	0x3d6a5e23	0.057218682
186	0x3e748ff1	0.23883034
187	0x3e0a5644	0.1350947
188	0xbf679f96	-0.90477884
189	0xbecda1e1	-0.40162566
190	0xbe976772	-0.2957111
191	0x3f0bac1f	0.5455951
192	0xbe0d42f4	-0.13795072
193	0x3f31de9f	0.6948032
194	0xbdd90726	-0.105970666
195	0xbf41bd4c	-0.7567947
196	0x3f2688dd	0.65052587
197	0x3f220d0b	0.6330115
198	0x3ecc1b8c	0.39864767
199	0x3ec7ca57	0.3902156
200	0x3efa6b08	0.48909783
201	0x3f7816cd	0.9690979
202	0x3edc7889	0.4306071
203	0x3d156ba5	0.03647961
204	0xbd277cf7	-0.04089066
205	0xbdaa094d	-0.08302555
206	0x3f039782	0.5140306
207	0xc03b5df8	-2.9276104
208	0xbe17432e	-0.14771721
209	0xbe431585	-0.19051178
210	0x3e2b82f1	0.16749169
211	0x3f2ed62f	0.6829557
212	0xbed5c042	-0.41748244
213	0x3f188eec	0.5959308
214	0x3d0df9a8	0.03466192
215	0x3ecb5c6c	0.3971895
216	0xbd645488	-0.055744678
217	0xbdda15f5	-0.10648719
218	0xbe17a306	-0.14808282
219	0x3dcccbf9	0.09999842
220	0x3da0c880	0.07850742
221	0xbd87453e	-0.06605004
222	0xbd8407bb	-0.06446787
223	0x3dbf418d	0.09338675
224	0xbdd56e73	-0.10421457
225	0xbc4fc46d	-0.012681109
226	0xbde71405	-0.11283115
227	0xbce612f4	-0.02808521
228	0xbe07d748	-0.13265717
229	0x3db2f385	0.08737854
230	0xbdea9900	-0.11454964
231	0xbd66fd29	-0.056393776
232	0xbe2531fc	-0.16132349
233	0xbd1fc85d	-0.03900944
234	0x3b98289b	0.0046435124
235	0x3dced9d9	0.10100145
236	0x3dfefe1d	0.12450812
237	0xbe2e240c	-0.17005938
238	0xbe3c4f6c	-0.18389672
239	0x3dd35da3	0.10320594
240	0x3ed98621	0.42485145
241	0xbd30efa9	-0.043197308
242	0xbf147aa8	-0.5799966
243	0xbe39ef94	-0.18157798
244	0x3c871abf	0.016492246
245	0x3e020f76	0.1270121
246	0x3e091ad1	0.13389136
247	0xbf0b6889	-0.54456383
248	0xbe44fe31	-0.19237591
249	0xbd0f824a	-0.035036363
250	0x3d6126eb	0.054968756
251	0xbee3d0fb	-0.44495377
252	0x3f50469e	0.81357753
253	0xbf0ed7c4	-0.5579798
254	0x3c88f7f0	0.016719788
255	0xbf54de96	-0.8315214

fc2.bias f4 [24]
0	0xbe5afd89	-0.21385778
1	0xbf38986b	-0.7210757
2	0x3f987cba	1.1913064
3	0xbf186c12	-0.595399
4	0xbfa1b38e	-1.2632921
5	0xbf013c37	-0.50482506
6	0xbf136e40	-0.57590103
7	0xbf7e8e1c	-0.9943559
8	0x3fd3f45c	1.6558948
9	0xbd9aaca4	-0.0755246
10	0xbf103445	-0.56329757
11	0xbef3e53c	-0.4763583
12	0x3f862672	1.0480483
13	0xbf1fef6f	-0.6247472
14	0xbf156fa5	-0.5837348
15	0xbf2294f6	-0.63508546
16	0xbe0de5ce	-0.13857195
17	0xbf0f1deb	-0.55905026
18	0xc012df73	-2.2948883
19	0xbe08aacf	-0.13346408
20	0xbee0104b	-0.4376243
21	0xbeebf92d	-0.46088544
22	0xbf4199bd	-0.7562521
23	0xbe95601e	-0.29174894

fc3.weight f4 [4, 24]
0	0x3e0d26dd	0.13784356
1	0xbf1e48f8	-0.6183009
2	0xbfe449da	-1.7835038
3	0xbeea8962	-0.4580794
4	0x40127710	2.288517
5	0x3e4ab89f	0.1979699
6	0xbef663dd	-0.48123065
7	0xbdc90f67	-0.09817391
8	0xc0087a87	-2.1324785
9	0x3d86943a	0.06571241
10	0xbf08ad53	-0.5338947
11	0xbed4dab7	-0.41573116
12	0xbfd584d3	-1.668116
13	0x3e29cfa0	0.16583109
14	0xbed0230e	-0.40651745
15	0xbd82e209	-0.06390769
16	0xbe10d6a8	-0.14144385
17	0xbccf4923	-0.025303429
18	0x3f85a47a	1.0440819
19	0xbe24c0d3	-0.16089182
20	0xbf0c0272	-0.5469123
21	0xbe09c767	-0.13454972
22	0xbee063d5	-0.43826166
23	0xbd691385	-0.05690338
24	0x3e06efa7	0.13177358
25	0xbf01d286	-0.5071186
26	0xbf27e35e	-0.6558131
27	0xbf00ed8d	-0.50362474
28	0xbfac4d26	-1.3461044
29	0x3e446118	0.19177663
30	0xbe3c8c4d	-0.18412896
31	0x3ca21dea	0.019789655
32	0xbf74039a	-0.95317996
33	0xbd471d73	-0.04861207
34	0xbf3a27dc	-0.7271707
35	0xbf010801	-0.5040284
36	0xbec6758f	-0.38761565
37	0xbec79a5d	-0.38984957
38	0xbef05a8b	-0.4694408
39	0x3cc75c73	0.024336075
40	0x3dbae947	0.09126525
41	0x3f1cb9d1	0.61221033
42	0x3eba95bb	0.3644236
43	0x3dc9e7db	0.09858676
44	0xbedb7cac	-0.42868555
45	0x3d1ec674	0.03876348
46	0xbf24046e	-0.6406926
47	0xbe28cab6	-0.16483578
48	0x3ea614ae	0.32437652
49	0xbf23ab78	-0.63933516
50	0xbe58ba1b	-0.21164744
51	0xbecc214d	-0.39869156
52	0xbfbd0a95	-1.4768854
53	0x3e9fc1b7	0.3120248
54	0xbf0891bd	-0.5334738
55	0xbede4f81	-0.43420032
56	0xbef070f8	-0.46961188
57	0x3e1d9d56	0.1539205
58	0xbf05b52a	-0.5222956
59	0xbf36de8f	-0.7143335
60	0xbd3a13f3	-0.04542918
61	0x3edf4754	0.43609107
62	0x3eac67a8	0.33672833
63	0xbe296732	-0.16543272
64	0x3d8a2f68	0.06747323
65	0x3e143457	0.14473091
66	0x3c4b89f5	0.012423028
67	0x390d0f64	0.00013452541
68	0x3dbc733a	0.09201665
69	0xbe1d3a70	-0.15354323
70	0xbef93283	-0.4867135
71	0x3e71b22b	0.23603122
72	0x3e930629	0.28715637
73	0xbe16ff92	-0.1474593
74	0xbd48a922	-0.048989423
75	0xbed317b1	-0.41229013
76	0xbfdb98ed	-1.7156044
77	0x3ed4b106	0.41541308
78	0x3cf21813	0.029552495
79	0xbea1a2ad	-0.31569424
80	0xbee72c97	-0.45151207
81	0x3dd67246	0.10471015
82	0xbd9d03f6	-0.07666771
83	0xbe8d9a9b	-0.27657017
84	0x3eaa6649	0.33281162
85	0x3ef25cfb	0.47336563
86	0xbdd70db3	-0.1050066
87	0xbeed4776	-0.46343583
88	0x3d2454ca	0.040119924
89	0x3ec8ebca	0.39242393
90	0xbf1eff07	-0.6210789
91	0x3e889caa	0.26682025
92	0xbf083a57	-0.5321402
93	0xbf17f175	-0.5935281
94	0xbe4dcb8b	-0.20097177
95	0xbd7cb123	-0.06169237

fc3.bias f4 [4]
0	0xc23394c1	-44.895267
1	0xc22aec16	-42.730553
2	0xc227f79d	-41.99181
3	0xc2257df1	-41.37299
